dp_results/best_dp_model_noise0.5.pth (torch, 30861 bytes, 12 tensors)

_module.model.0.weight f4 [64, 15]
000000 c2 bf 80 bc 30 86 0c b8 a4 8a 54 3d 50 70 fa 3a
       -0.015716437 -3.3503573e-05 0.05189003 0.0019106958
000010 20 13 c3 ba 70 f1 14 bd 39 2d 0f 3d 98 87 c8 bc
       -0.0014883019 -0.036363065 0.034955237 -0.024478719
000020 2c dc cb 3b c8 5c 7c 3c 92 c5 9b 3c d0 ac 41 3c
       0.006221315 0.01540298 0.019015107 0.011820987
000030 fc 8c e5 3b 73 fc 98 bc 14 1e 35 3c 3e ec 3c bb
       0.007005332 -0.018675065 0.011054534 -0.0028827335
000040 75 03 4f 3c 9c 9e 9b bd 53 4e ad 3b f9 df 9b bb
       0.012635102 -0.07598612 0.005288878 -0.004756924
000050 9d 6c 45 3c e3 7f 69 3c b3 27 d0 bb 3f 0a 32 3c
       0.012049821 0.014251682 -0.0063523888 0.010866701
000060 82 a7 6b 3b 17 e4 1c 3d de 3a a9 bc 63 67 31 bb
       0.0035957997 0.03830346 -0.020657953 -0.002706968
000070 f3 ff c1 bb de e5 62 bd 19 fb fc bb bc 9a c8 3b
       -0.005920404 -0.055395 -0.007720363 0.0061219614
000080 2e fa 68 3b cc f7 14 bb fc 3d 51 bb 54 c8 2f 3c
       0.003554951 -0.0022730706 -0.0031927815 0.010728914
000090 b3 6c 20 3c dd e5 69 3a f8 51 c6 3b 39 dd 17 3a
       0.009791541 0.0008922497 0.006052252 0.00057931576
0000a0 af 61 56 bb 22 0a b9 bc f9 06 0a bc f4 b9 87 3c
       -0.0032712033 -0.02258784 -0.008424514 0.016568162
0000b0 58 79 9a 3b 78 5f d7 bc 17 d4 44 3b 7a 17 bc bb
       0.0047141723 -0.02629064 0.0030033642 -0.0057401033
0000c0 f4 54 ac 3b b6 5c dd 3c ef cc 8e 3c d0 37 b0 bb
       0.0052591506 0.027021747 0.017431704 -0.005377747
0000d0 3e 30 97 3c de 13 8f 3b e6 39 44 3a cf 99 f7 3a
       0.01845562 0.004366382 0.0007485434 0.0018890443
0000e0 9c 26 aa 3b 28 cd 8c bc 10 01 da 3a 3f 80 2b bc
       0.005192591 -0.01718767 0.0016632397 -0.010467588
0000f0 7b d9 03 3c 15 95 8f 3c 18 70 44 bc 4e c7 1a bb
       0.008047457 0.017527143 -0.011989616 -0.002361733
000100 d5 a7 1c bc ed e7 80 bd 91 74 8d 3b 64 d2 5e bd
       -0.009561499 -0.06294236 0.0043168743 -0.054399863
000110 0b aa a2 3c 2a ce 0f 38 8d 06 72 bc 7c 66 a5 bb
       0.019856473 3.4285862e-05 -0.01477207 -0.0050476175
000120 9e 37 2c 3c fc 5d 61 3c 88 92 36 bc ab 26 57 bb
       0.010511307 0.013755318 -0.011143334 -0.0032829444
000130 b1 f9 2c bd 89 83 b2 3a 40 c7 68 3c bc 16 e5 3b
       -0.04223031 0.0013619523 0.014207661 0.0069912355
000140 0c fc 93 bc 65 93 66 3c 07 9c 34 3b dc 46 65 3d
       -0.018064521 0.0140732275 0.002755882 0.05597578
000150 ed 83 88 3c cb bc 1b 3d 83 69 0b 3c 3e ce 27 bc
       0.01666447 0.038021844 0.008509043 -0.010242043
000160 3b 20 39 bc fd 0d 94 bb ec a3 50 3c 20 8e d1 bb
       -0.011299188 -0.004518269 0.0127343945 -0.0063951164
000170 03 e1 6e 3c 93 d7 52 3a b5 7f 68 3c 30 9d bb 3b
       0.014580014 0.00080429873 0.014190604 0.0057255253
000180 37 5d 06 3b 29 48 28 3c c3 f5 3e bc ed 12 30 bc
       0.0020502338 0.010271111 -0.011655274 -0.0107467
000190 b9 58 fd bb 3f c0 36 3b 4d de 01 3c ae 72 4d bc
       -0.007731524 0.0027885584 0.007926536 -0.012539549
0001a0 11 d7 b3 3c 20 86 2e bc dc 34 16 bc ad 6c 50 bb
       0.021953138 -0.010652095 -0.009167876 -0.0031803057
0001b0 55 8a 4e 3c 8f 29 ef bb a2 2d c2 3c 9c 2f 84 bc
       0.012606223 -0.0072986553 0.0237034 -0.016135983
0001c0 a4 04 2d 3c 27 d0 75 bc 2b bc 12 bb 9e 96 7b bb
       0.010560188 -0.015003241 -0.002238999 -0.0038389335
0001d0 80 25 9e 3c 00 81 62 3a 8b d6 84 3c 64 f7 87 bb
       0.01930499 0.00086404383 0.016215583 -0.0041493643
0001e0 50 72 22 3c cd e6 25 3c cc fd 08 3b 10 e2 d9 bc
       0.00991495 0.010125828 0.0020903228 -0.026597053
0001f0 05 78 ac 3a 36 16 cb bb b8 b7 59 3c d7 0c 05 bc
       0.0013158327 -0.006197716 0.013288431 -0.008120737
000200 ce 32 94 3b a0 4d b1 b8 d9 df a5 3c b7 ed 2c bd
       0.004522658 -8.4544765e-05 0.02024834 -0.04221889
000210 a8 a3 c9 3a 4d ad ce bb a2 e7 eb bb a6 57 d2 bc
       0.0015383856 -0.00630728 -0.0071992436 -0.02567656
000220 21 33 de 3c 76 87 88 3c d9 85 bb bc 23 6d b1 bc
       0.02712399 0.016666155 -0.022890972 -0.021658486
000230 42 b7 d6 3c 25 04 31 bd 42 49 86 b9 b6 63 d4 3c
       0.026210431 -0.043216843 -0.00025613053 0.025926452
000240 94 04 17 3b 05 f7 1e 3b 89 4e 1c bc 05 66 8c 3c
       0.00230435 0.0024256122 -0.009540209 0.01713849
000250 62 78 74 bc b8 5d 08 3d 68 aa 76 3b b5 1b aa bc
       -0.01492128 0.033292502 0.003763819 -0.020765165
000260 66 db 97 ba 0a c9 1a bc 16 5d ee 3a c1 1f 49 bb
       -0.0011585772 -0.0094473455 0.0018185701 -0.0030689093
000270 a6 fa 19 3a 15 b8 11 3b 4e b5 4c 3b d4 d1 3c ba
       0.00058738363 0.0022234966 0.0031235996 -0.00072028977
000280 ad fc 77 bc ad 65 8a 3a d8 6d 07 bc c8 56 38 3d
       -0.015135926 0.0010558866 -0.008265935 0.045004636
000290 bf be d1 bb 28 61 44 3c dc ca 32 bb 72 d0 19 bd
       -0.0064009125 0.0119860545 -0.0027281558 -0.037552305
0002a0 3e 7e 5b bc cd 06 69 bd 28 44 fa 3b f9 9e c4 3b
       -0.013396798 -0.05689125 0.0076375194 0.0060003963
0002b0 e2 49 18 bc 95 a2 f7 3c 37 33 5f 3c dd 32 89 bb
       -0.009294959 0.030228892 0.01362305 -0.0041869716
0002c0 38 28 be 3c 26 e7 09 bb 58 2f d5 3b 59 ae 25 3b
       0.023212537 -0.0021042316 0.006505888 0.0025280921
0002d0 bc 2b 96 bc 3a e3 96 3c db ea fe bc 0e 15 0c 3c
       -0.018331401 0.018418897 -0.031117847 0.008549942
0002e0 5a 34 c2 bc 40 b5 43 bc aa 9b 20 3c 66 63 07 3c
       -0.023706604 -0.011945069 0.009802738 0.0082634445
0002f0 fa 8b d7 3b 35 25 a8 bc f2 0c 6a ba 08 14 10 3d
       0.006577966 -0.020525554 -0.00089283206 0.035175353
000300 da c1 d3 3b 4f df 9e 3b ff 3d 91 bc 3a c3 d2 3b
       0.006462318 0.004848398 -0.017729757 0.006431964
000310 81 4d b5 3b 24 9d 5a bc 3c ee 24 bd 03 5e a0 3a
       0.005532921 -0.013343129 -0.04026626 0.0012235049
000320 4e 96 ac 3b 91 b8 9f bb 14 b0 bd bc a0 31 b6 3a
       0.005266941 -0.004874297 -0.02315525 0.0013900287
000330 2b 5f ad bc ba 1e bc bb a1 ac 7b 3b 9d f3 5b 3c
       -0.021163544 -0.0057409676 0.0038402455 0.013424781
000340 43 0d 4b 3c 27 36 ac 3b 0b bc f9 3b 50 37 81 bc
       0.012393299 0.005255479 0.0076212934 -0.015773445
000350 6e d8 3f 3c ed c3 1c 3d 77 6f 4c 3c 64 ea 50 3b
       0.011709316 0.038272787 0.012477747 0.003187799
000360 6a 2a 9d b9 eb 93 10 bc 08 15 8e 3b 70 30 4f ba
       -0.00029976974 -0.008824329 0.004336003 -0.0007903641
000370 c9 67 49 bd 53 77 16 bc 6c 3f cc 3b d9 ae 84 3b
       -0.049171243 -0.009183723 0.0062331464 0.004049164
000380 8f e3 78 3c 0f 25 98 3c 71 e3 58 3c d3 ba 05 bc
       0.015190973 0.018572358 0.01323782 -0.008162218
000390 b4 cc 3b 3c c8 1d df 3c 2c 1b 1e bb ff e0 ee 3b
       0.011462379 0.02723588 -0.0024125082 0.007290005
0003a0 5a 4c 3a bc 9d b8 2e 3d 84 ad 31 bc 08 29 81 bc
       -0.011370743 0.04265653 -0.010844592 -0.015766636
0003b0 e7 39 c5 bb b2 04 95 bc 3d 42 83 bb 0c d0 a0 bc
       -0.0060188654 -0.018190715 -0.004005699 -0.019630454
0003c0 7f d4 46 3c b0 cd d0 b9 84 23 2c bc 1e 91 c2 3a
       0.012135624 -0.000398261 -0.010506514 0.0014844274
0003d0 b1 0f 8a 3d 6e df 72 ba dc da 2a bc ef 8b 37 3c
       0.06741274 -0.0009264861 -0.010428157 0.011202796
0003e0 fe 14 c6 ba f5 64 e5 bc c3 c6 81 3b 89 58 f1 ba
       -0.0015112457 -0.028002242 0.003960462 -0.0018413226
0003f0 c6 6b 4f 3a e7 49 82 3d 96 52 a1 3c 40 09 9d 3b
       0.0007912483 0.06361752 0.0196927 0.0047923625

_module.model.0.bias f4 [64]
000000 d6 91 08 bc 40 a7 03 3d 60 db 73 bc 5d 50 23 bb
       -0.008335551 0.032141924 -0.014883846 -0.0024919726
000010 84 d3 9a 3b 3c 67 98 bb e7 c2 c1 bb 2a 2d e9 bc
       0.0047249217 -0.0046509784 -0.0059131267 -0.028463919
000020 90 43 f7 bc 51 5e 12 3d 4d 86 07 3d 27 10 ac 3b
       -0.030183583 0.03573448 0.033087064 0.005250949
000030 63 2c 1c bc 7c d5 30 bb 4e de 33 ba ee cd 89 bd
       -0.009532067 -0.0026982715 -0.0006861434 -0.06728731
000040 28 14 06 bd ba 8e 33 3d 08 84 66 3c 96 96 2a bd
       -0.032734066 0.043837287 0.014069565 -0.041647516
000050 58 a3 56 bc 4e c1 47 bd 79 9a 80 3d 40 c2 0a bc
       -0.013100468 -0.048768334 0.06279463 -0.008469164
000060 66 43 53 3b 4c 88 93 bb 2e 55 09 bc 9d c9 d9 3d
       0.0032236218 -0.004502332 -0.008382125 0.10634158
000070 86 89 82 bd a8 33 52 bd 8c 71 58 3d ed 24 9f bb
       -0.06373887 -0.051318794 0.05284266 -0.004856697
000080 52 bb 99 bc 9c 48 43 3c d0 65 13 bb 0c f9 c5 3c
       -0.01876608 0.011919167 -0.0022491105 0.024166606
000090 eb 5a ae 3d e9 2e c0 3d 7d 1e 59 3c f5 ba 08 bd
       0.08513435 0.093839474 0.013251898 -0.03338142
0000a0 4f 9b 2b 3d a2 ef 99 3b 9c 93 fc 3c 7c 93 a1 3b
       0.04189616 0.004697756 0.030832104 0.0049309116
0000b0 9e 52 0f bc 2b ed bb bc 92 ca 15 bd 1f 33 73 3b
       -0.008747725 -0.022940239 -0.03657014 0.0037109328
0000c0 5f a8 96 3b 40 13 27 bb fa 35 29 bd ac 98 bd 3c
       0.004597708 -0.0025493652 -0.04131124 0.023144089
0000d0 14 ce 1c 3d 60 3e 8e bc ac 29 7b b9 98 9b 11 bb
       0.03828247 -0.017363727 -0.0002395275 -0.0022217985
0000e0 9e 04 c6 3c 9d ed 9e 3d 34 1a 0c bb 33 17 7f 3c
       0.024172124 0.07760165 -0.0021377923 0.015569496
0000f0 a2 e6 d2 bc d8 1a d0 bc 71 c5 6f bc cd f2 0f 3c
       -0.02574474 -0.025403425 -0.014634476 0.008785916

_module.model.2.weight f4 [48, 64]
000000 84 bf aa 3b c9 c1 9d bb 2e 8c 08 3c 3d ce 86 bb
       0.0052108187 -0.0048143608 0.008334203 -0.004113941
000010 4b 35 97 3b fc 36 25 bc c6 f6 ee ba b6 6b 7f 3c
       0.0046145073 -0.01008391 -0.0018231503 0.015589645
000020 d7 be d2 bb 84 fc 9b bc 22 ec d2 3b 5a 23 59 3c
       -0.0064314413 -0.019041307 0.0064368406 0.013253057
000030 ad 0b 16 3b 8d 6a 37 bb 80 4f 03 3a f9 ea fb 3b
       0.0022895143 -0.0027987093 0.00050091 0.007687923
000040 00 ef 81 ba 85 d7 6e bc fd fb be 3c 25 54 c1 3b
       -0.0009913146 -0.014577751 0.023313517 0.0058999234
000050 15 a0 00 bb 66 8a e8 b9 3a c9 16 3c ac 43 90 bc
       -0.0019626666 -0.00044353603 0.00920325 -0.017610393
000060 3a 4d a3 3a a0 a7 89 bc d3 0b 9b bb 1a 22 0f bb
       0.0012458928 -0.016803563 -0.004731634 -0.0021840394
000070 2a fd 9a bc 48 df b5 bb 16 97 2b bc 28 c2 77 bb
       -0.018919546 -0.005550299 -0.010473033 -0.0037804935
000080 1e 0f 5b 3c 9c 8d cf 3b 28 f0 93 bb 6c 27 83 bb
       0.013370303 0.00633402 -0.004514713 -0.004002502
000090 21 b2 8f 3b cb 30 00 bb 36 7f 2f bc e0 14 98 bb
       0.0043852483 -0.0019560333 -0.010711482 -0.0046411604
0000a0 64 a5 09 3a fc 42 0e 3a 39 0a 29 3b cc ad 0c 3c
       0.00052507804 0.00054268516 0.0025793447 0.008586358
0000b0 8a 37 ec 38 7f f1 9c 3c 4e 47 a2 38 b6 4d af 3b
       0.00011263702 0.019158123 7.7380435e-05 0.00534984
0000c0 46 8d 10 3c 82 cf 3c 3c 49 5a 23 3c d2 e4 50 3b
       0.008822745 0.011524083 0.009970256 0.0031874669
0000d0 67 fc 82 3c 63 51 30 3b f6 ea a0 3b c9 29 76 bb
       0.015989495 0.002690398 0.004910822 -0.0037561527
0000e0 20 01 df 3b 4a 0f 02 bc 48 90 c6 3a 34 d7 26 3c
       0.006805554 -0.0079382155 0.00151492 0.010183144
0000f0 1a 93 06 bc 2e d5 be b9 f3 c0 59 3c 67 77 6f bc
       -0.008213783 -0.00036398455 0.013290632 -0.01461587
000100 a3 68 ba bb c5 a2 82 3b d3 cd 19 bb dd 78 2f 3c
       -0.005688743 0.003986689 -0.0023468628 0.010709968
000110 b2 de 42 bc 82 18 0d 3c 62 25 73 bc e3 85 07 bb
       -0.011893915 0.0086118 -0.014840456 -0.0020679168
000120 cd cd 29 3b f1 e4 8a 3c de fc af 3c 14 55 04 3b
       0.002591002 0.01695487 0.021482881 0.0020192312
000130 b8 62 0f bc 50 f6 74 3b c9 30 2a 3c 13 dc f0 3b
       -0.008751564 0.003737826 0.010387608 0.0073504536
000140 65 2d e0 3b 88 1b 15 bc 83 b3 8f ba a7 24 5a bc
       0.006841349 -0.009100802 -0.0010963533 -0.013314403
000150 ba cc 45 3a f7 9c 98 bb a1 5d 03 bc 4c 37 96 bb
       0.000754546 -0.0046573835 -0.008017928 -0.0045842286
000160 48 6e f3 3a 2f 68 67 bb 72 38 2b 3c b0 1c d6 bb
       0.0018572295 -0.00353099 0.010450469 -0.0065341815
000170 31 77 97 bb 52 b1 82 bb 74 7b 39 bc 7b 70 ef 39
       -0.004622363 -0.0039884234 -0.011320937 0.00045669437
000180 1a e1 ee bb 71 91 4b ba 5b 1d 62 bc 3b ae 3e 3b
       -0.007290018 -0.0007765508 -0.013800944 0.0029095549
000190 9c d2 6c bc c1 cd d3 3a 20 9e 74 3c 61 f4 08 3c
       -0.01445451 0.0016159342 0.014930278 0.008359046
0001a0 c3 1e b7 bb fa 1a 79 bc 54 33 0a 3c 49 3d 0b 3c
       -0.005588384 -0.015204186 0.008435089 0.008498498
0001b0 da 28 ba bc 47 12 7e 3c 15 d3 47 bb 67 3f d4 bb
       -0.022724558 0.015507287 -0.0030490805 -0.0064772847
0001c0 30 08 93 bb 62 9b 05 bc af 2a 20 bb f2 25 46 bc
       -0.00448706 -0.008154722 -0.0024439504 -0.012094008
0001d0 95 70 13 bc c1 98 42 bc 1a 94 0e bc a2 bc b4 b9
       -0.00899901 -0.01187724 -0.008702302 -0.00034472818
0001e0 c8 f3 0b b9 1f ea c6 3b 86 e3 5e 3a 65 94 93 3b
       -0.00013346889 0.00607039 0.00085025316 0.004503774
0001f0 75 cd bf ba 62 8d 30 39 7e d0 1b 3c 03 ef 90 bb
       -0.0014633375 0.00016837337 0.009510158 -0.0044230237
000200 01 ab 04 bd 04 95 31 3d 02 82 e1 3a e8 e7 35 bc
       -0.032389645 0.043355003 0.0017204883 -0.011102654
000210 78 9d 04 3d 43 22 e0 3c ed 8e 93 3c 91 13 59 bb
       0.032376736 0.027360087 0.018012488 -0.0033123235
000220 95 12 ad 3b 6c 41 21 3d 8b 4f 3a 3c 22 1f c5 bb
       0.005281756 0.03936903 0.011371504 -0.006015674
000230 d0 0b 21 3d b4 fb 87 3c d1 35 10 3d 22 32 ab bb
       0.039317906 0.016599514 0.035207573 -0.005224482
000240 f3 de b2 3c dc 74 92 3c 58 3e 7f 3c 99 9f 6c 3b
       0.021834826 0.017877989 0.015578829 0.003610587
000250 54 de 20 3c fd e1 99 3c ee 04 50 bc 6e a3 03 3d
       0.009818632 0.018784517 -0.012696488 0.03213828
000260 a1 16 1d 3b 2f e8 35 3c a3 ce cb ba 6a 07 46 3d
       0.0023969787 0.01110272 -0.0015549253 0.048346914
000270 f6 0b 20 bc 31 74 ca ba e7 46 75 3c f0 57 c6 3c
       -0.009768477 -0.0015446005 0.014970518 0.024211854
000280 69 4d bf bc 20 93 70 3d 7e 62 83 bc 82 21 6f 3b
       -0.023352342 0.05873406 -0.016038176 0.0036488478
000290 58 99 92 3d 03 ba 03 bd 9f 53 19 bc f7 44 42 3c
       0.07158154 -0.032159816 -0.009358316 0.011857263
0002a0 f9 db 8e 3d 9d 85 78 3c 75 0f 0f 3d 35 97 69 3c
       0.0697555 0.015168575 0.03492685 0.014257242
0002b0 32 77 83 3d 85 fb ec 3c fa 34 8d 3b 77 45 43 3d
       0.06419219 0.028928528 0.004309294 0.04767367
0002c0 c7 86 af 3c c7 1e 0a 3d fd e7 85 3b 83 42 88 3c
       0.021426572 0.033720758 0.004086493 0.016633278
0002d0 55 18 32 3d 60 79 3c 3a a0 cf 03 3d 11 35 86 3d
       0.043480236 0.0007189717 0.03218043 0.0655309
0002e0 bf 5f 21 3d ba 5c d7 3a 6c 53 d6 3c 41 6b 8c 3a
       0.03939795 0.0016430833 0.026162826 0.0010713116
0002f0 83 a3 11 bc 46 b8 a2 3b 6b 7c 9f 3b e5 36 34 bc
       -0.008889082 0.0049658148 0.0048671267 -0.010999416
000300 c2 be 38 3a ee 7b 8d bb 69 a1 9d bc 27 3e 7b bc
       0.0007047468 -0.004317752 -0.019242005 -0.0153346425
000310 bb 83 98 3c f7 dc 08 3c cc b9 36 3c 6f 31 30 3c
       0.018617501 0.008353463 0.011152696 0.010753973
000320 4a b1 8f bc 95 96 81 bc a0 33 b3 37 9b 22 84 ba
       -0.017540593 -0.015818873 2.1362503e-05 -0.0010081114
000330 f2 da f5 bb 84 18 d9 bb c1 cc 37 ba b2 65 46 3a
       -0.007502907 -0.006625237 -0.00070114067 0.00075682544
000340 03 9c 0c bb e8 64 dc bb a4 5f 48 3c ff 10 2f bc
       -0.0021455295 -0.006725896 0.012229834 -0.0106852045
000350 d7 fb 7a 3b 32 21 cb bb c2 b2 5e bb 27 20 3b bb
       0.003829708 -0.0061990255 -0.003398106 -0.00285531
000360 80 db 34 3b f4 e1 fe 3b b2 f5 47 bb fc f0 85 b9
       0.0027596653 0.0077784006 -0.0030511436 -0.00025547284
000370 b0 08 fa bb 7f 32 2a bc 5e ad d9 bc cc 4e 47 bb
       -0.00763043 -0.010388016 -0.026571926 -0.0030411957
000380 62 4f a7 3b 35 0b 4c bb dd c2 2f 3b 86 fc 1e 3b
       0.0051058987 -0.003113461 0.0026819028 0.0024259402
000390 1f ba af ba 3b fc 8b bc 91 e1 d3 3b 8b 4e 1c 3c
       -0.0013406909 -0.017088046 0.0064660986 0.0095402105
0003a0 64 31 fa bb 7c 24 fa 3a 79 0c 05 bc cd a7 3f 3c
       -0.0076352824 0.001908436 -0.0081206495 0.011697722
0003b0 c8 0d 34 3b 11 c5 2d 3c f3 88 50 3c c7 1b 1d bb
       0.0027474035 0.010606066 0.012727964 -0.0023972855
0003c0 28 3e c9 bb 9e 9f 6f 3a fe fd 07 3c cd 37 16 39
       -0.006141443 0.0009140911 0.008300303 0.00014325902
0003d0 0f 17 e2 bb fb 23 7b bc 59 d1 bb bb a9 3b 6e 3b
       -0.0068997215 -0.015328403 -0.0057317433 0.0036351478
0003e0 7a 4c bf 3b 07 66 bd ba d0 33 9f 3c 22 1b ea 3b
       0.005837974 -0.0014449962 0.019433886 0.0071443478
0003f0 12 3e 3a ba 7c 02 f5 bb bd 09 8c 37 b4 29 58 3a
       -0.0007104586 -0.007477103 1.6693835e-05 0.00082459603

_module.model.2.bias f4 [48]
000000 ae 69 8c 3b 68 f7 56 3c f5 a5 98 3d fd 22 80 bc
       0.004285059 0.01312051 0.07453529 -0.015641684
000010 69 32 9c 3c d6 0f 80 3c 1a b2 3e bb de 7b a2 3b
       0.019067006 0.015632551 -0.0029097856 0.004958614
000020 d6 9a 4e bc ab b8 53 bc d3 15 89 bc 0b 64 13 bc
       -0.012610158 -0.012922446 -0.01673404 -0.00899602
000030 50 bf 2b bc 7c 3c f5 bc 90 22 ed b9 0b 24 3e 3d
       -0.010482624 -0.029936068 -0.00045229914 0.046421092
000040 11 0f 95 3d 70 39 11 3c 9a 1a e3 bc bd e4 22 3b
       0.07278264 0.008863792 -0.027722646 0.0024855577
000050 47 07 16 bd 4c 53 84 3c a0 0e 28 3c da 2e 34 bb
       -0.036628034 0.016153 0.010257393 -0.0027493746
000060 9a 3b 32 3d 33 e5 45 3d 30 52 12 3c a0 7d 36 bc
       0.04351387 0.048314285 0.008930728 -0.01113835
000070 c8 41 c5 3c 58 c5 9e 3d 4b cc dc 3c c7 19 a2 bc
       0.024079219 0.07752484 0.026952883 -0.019787682
000080 a1 c0 68 3b 66 71 81 3d 85 b5 d6 3d 26 44 82 b9
       0.0035515206 0.06320457 0.10483841 -0.00024846307
000090 ef e0 4d bc 3b 11 13 3d e2 3b 21 3c fd b2 b6 bb
       -0.012565835 0.035905104 0.009840937 -0.0055755363
0000a0 39 14 be bb 68 c6 93 bc bc 8d 9e 3b b6 83 b7 3b
       -0.0058007506 -0.018038943 0.0048386734 0.005600418
0000b0 4e 60 88 3d 98 49 59 3c 74 d7 4b 3c 22 43 ad 3d
       0.06658994 0.013262175 0.012441505 0.0846007

_module.model.4.weight f4 [32, 48]
000000 8f 37 44 3b 93 6d 27 bc be 9a 4e 3c ce 28 77 3b
       0.0029940342 -0.010218996 0.012610136 0.003771353
000010 6c 3d 3f 39 f4 8f 01 bc 6f 77 04 bb 06 58 96 bb
       0.00018238061 -0.007907856 -0.002021279 -0.00458813
000020 eb 3e 31 3c 6d e8 c9 bb d2 13 16 3c 4d 66 6c bc
       0.0108182235 -0.0061617405 0.009159999 -0.014428687
000030 e0 bd 60 3b 08 84 0f 3a 88 25 f1 bb 12 c7 41 3c
       0.0034292862 0.0005474691 -0.0073592104 0.011827247
000040 b6 38 96 3c b6 eb ad 3b 48 56 7c 3a 02 e0 12 bc
       0.018337589 0.00530764 0.0009625894 -0.00896454
000050 aa 61 72 bb 06 a4 9d bb 38 13 06 bc 4c bf 33 3c
       -0.0036984482 -0.004810813 -0.008183293 0.010970902
000060 a8 98 f0 bb 0d f5 a4 bb 28 77 b7 bc 62 d5 08 ba
       -0.007342417 -0.005034095 -0.022395685 -0.0005219785
000070 48 46 a6 b9 30 16 3a bb c2 49 4b bc 6c 91 67 39
       -0.0003171435 -0.0028394572 -0.012407722 0.0002208405
000080 cd ff 09 ba 97 ec 11 3b d3 13 49 bc c6 20 9f bb
       -0.00052642525 0.0022266263 -0.012272793 -0.004856202
000090 6b 7e 9d 3b 04 bd fa 3b 4d 8c 67 bc d0 98 7e 3c
       0.00480633 0.007651927 -0.014132571 0.015539363
0000a0 41 40 0f 3c b8 c1 08 bc d1 fa 94 3c c9 a0 1c 3c
       0.008743347 -0.008346967 0.018186005 0.009559819
0000b0 0f ed e1 ba 9e 53 5f 3c ae 70 1d bc d8 69 41 3a
       -0.0017236787 0.013630776 -0.009609384 0.00073781377
0000c0 87 d2 0c bb 99 f7 80 3a c1 af 8c 3c b2 7d 00 3b
       -0.0021487789 0.0009839415 0.01717365 0.001960617
0000d0 70 b3 b3 3b 7a a2 a1 3b cb 8d 39 bc e6 98 aa bb
       0.005484037 0.004932699 -0.01132531 -0.005206215
0000e0 2b 75 da 3b 34 ce 5c bb d0 32 50 bc c7 e9 2f bc
       0.0066667995 -0.0033692243 -0.012707427 -0.010736889
0000f0 82 14 9a 3b eb a6 c2 bb c4 f6 04 3b 80 65 c4 3b
       0.0047021518 -0.0059403083 0.0020288685 0.005993545
000100 7a 86 47 3c 0d 14 db bb cb 3b 93 3b bf 75 b2 bc
       0.012178058 -0.00668574 0.004493212 -0.021784661
000110 72 e1 05 bc 4a 8a 39 bb 8a 10 89 bc 86 47 61 bc
       -0.008171426 -0.0028311186 -0.01673152 -0.013749963
000120 69 ec 5d bb cf fc ac 3c 85 98 70 bb 0b dd 44 3b
       -0.0033862835 0.021116642 -0.0036712002 0.0030038978
000130 7b ee b4 bb 76 53 54 3c e8 f1 da b9 d6 d4 a2 3b
       -0.005521593 0.012959352 -0.00041760434 0.0049692197
000140 55 23 2f 3a 39 a2 88 3b c1 71 55 bc 7f 68 9f 3b
       0.0006680985 0.004169729 -0.013027609 0.004864752
000150 60 59 2f bc 4e ff 14 bc 19 db f7 38 b9 e3 02 3d
       -0.010702461 -0.0090940725 0.00011818688 0.031955454
000160 ae 82 86 3b bd ff ae 3b 4d 23 9e 3c 47 43 27 bc
       0.0041049337 0.005340545 0.019303942 -0.010208911
000170 11 b1 43 bc 7f b9 d8 3b 1f 84 04 bd db 75 1b bc
       -0.011944071 0.0066139097 -0.032352563 -0.009488548
000180 d9 32 a9 bb 3e a5 65 3b 44 62 ef 3c 50 cc 90 ba
       -0.005163532 0.003504112 0.029221661 -0.0011047218
000190 c6 10 16 bc 92 22 a5 3c 91 61 31 bb 2b d7 9b 3b
       -0.009159273 0.020158086 -0.002706621 0.0047558746
0001a0 03 3c 98 3b b2 c4 af bb 13 fd e2 bb 0f 5f 13 bd
       0.004645826 -0.005364024 -0.0069271415 -0.035979327
0001b0 6a 5a bf bb c2 f8 1a bc 14 b4 95 bb 2c 02 91 bb
       -0.0058396356 -0.009458723 -0.004568586 -0.0044253077
0001c0 a3 1f 33 bd 88 bf 25 3c b0 09 00 3b e0 84 30 bc
       -0.043731343 0.010116465 0.0019537024 -0.010773867
0001d0 72 04 b6 3c 5f 46 a3 bc 44 f6 28 bc 45 82 9d bc
       0.022218917 -0.019931016 -0.010312621 -0.019227156
0001e0 ed 7e 9e bb 3e 13 84 3c 17 15 96 bc 27 1c 3a 3c
       -0.004836908 0.016122457 -0.018320603 0.011359251
0001f0 94 21 8d bd 99 e7 34 3d f7 40 12 3c cd 10 52 bc
       -0.0689117 0.04416618 0.008926622 -0.012821388
000200 1a 61 13 3c eb 70 61 3d 74 14 fe bb 99 d8 4d bc
       0.008995319 0.055039328 -0.007753903 -0.012563848
000210 ec 07 67 3a 09 fe 91 3b 3d 5e 47 3b e9 cd 00 3c
       0.0008813131 0.004455332 0.003042116 0.007861593
000220 4e 5f 84 bc ae 36 df 3b bd 0e bf bb c8 16 f2 bb
       -0.016158726 0.0068119382 -0.0058306144 -0.0073879696
000230 0b 67 42 bb d5 c3 30 3d e7 3a ac bc 44 ff 9a 3c
       -0.002966347 0.04315551 -0.02102418 0.018920548
000240 1c a2 db bb 28 7f ea 39 cc a4 62 bc a3 54 1a 3b
       -0.0067026746 0.00044726697 -0.013833236 0.0023548983
000250 cc b0 d5 3b 91 7a 10 3c e9 c0 a9 3b 82 6c 02 b9
       0.00652132 0.008818285 0.0051804674 -0.00012438188
000260 60 1b ec bc de 3d a0 3c 27 6f 90 bc b5 a0 66 bc
       -0.028821647 0.01956075 -0.017631127 -0.0140764015
000270 68 86 8f 3b 8f 70 13 bc 27 13 ad 3b d1 09 bf 3b
       0.004380036 -0.008999004 0.005281824 0.0058300276
000280 23 95 ac 3a d5 45 93 bb ea 96 22 3b 3d be ea b8
       0.0013167005 -0.0044944086 0.002480919 -0.00011193424
000290 43 76 8d b9 8f 32 27 bc d0 35 7a 3b 62 70 30 3b
       -0.00026981728 -0.010204925 0.0038179047 0.0026922454
0002a0 a7 84 ef bb fc 90 81 37 8c 3b 2c bc b6 55 26 bc
       -0.0073095146 1.5445512e-05 -0.010512244 -0.010152271
0002b0 81 ae b9 bc 72 30 56 ba ba 04 47 3c 54 c6 9e 3b
       -0.022666218 -0.0008170671 0.012147123 0.00484542
0002c0 8a ff cf bb 39 74 11 bc 5a 27 47 3c 25 eb 89 bb
       -0.0063476013 -0.008877807 0.012155378 -0.0042089396
0002d0 2c 80 6f 3c eb 23 93 bb c3 5a a0 3b e4 ad 9a bb
       0.014617961 -0.0044903657 0.004893632 -0.0047204364
0002e0 d5 d6 0d bc e8 6a 02 bc a1 ab a5 bc 49 c0 25 bc
       -0.008657177 -0.007960059 -0.02022344 -0.010116645
0002f0 d0 60 32 bc 25 6f 01 3b f8 3b 15 3c 56 64 9c bc
       -0.01088734 0.0019750085 0.009108536 -0.019090813
000300 d9 94 9e 3b ee 7a ea bc a6 71 91 3d ee 3a 07 bc
       0.0048395214 -0.02862307 0.07101755 -0.008253796
000310 39 e6 02 bd 41 83 16 3d 78 12 0c 3c c1 c1 b3 3c
       -0.03195784 0.036746267 0.008549325 0.021942975
000320 b4 a0 02 bd 78 1e 19 3b 26 30 8f bc d8 3d d1 3c
       -0.03189154 0.0023364108 -0.017479014 0.025542185
000330 5c 6d a7 3b ef 0c 92 3c 96 70 6b bb bf 88 81 bb
       0.005109472 0.017828433 -0.003592526 -0.003953069
000340 bd ae 2b 3d d4 d5 52 39 f7 d4 07 bc 96 7c 92 3b
       0.04191469 0.00020106818 -0.008290521 0.004470418
000350 0f 4d 05 3c cd bf 26 3b 42 77 13 bb 81 75 84 3b
       0.008136048 0.0025443912 -0.0022501503 0.004042328
000360 f0 c7 d7 3c 0e c9 c9 3b 13 e2 9e bb 90 7e ad b9
       0.026340455 0.006158001 -0.0048487275 -0.00033091428
000370 07 8c 98 bc ca 8b 72 3d 55 cf 48 bc 4b da 01 3b
       -0.018621458 0.059215344 -0.012256463 0.001981395
000380 a9 23 2a 3d 75 19 25 3d 2d 3d 18 3d 6e c9 bd 3c
       0.041537914 0.04030748 0.037167717 0.023167338
000390 3e 7c 45 3b b3 06 16 bc 12 46 cd 3d 08 b3 66 bc
       0.0030133869 -0.009156871 0.100231305 -0.01408077
0003a0 48 42 91 3c f2 83 93 bb 62 ce da 3c 98 af 01 3c
       0.0177318 -0.004501813 0.02670974 0.0079154
0003b0 cb ca ba 3d b1 23 e7 3b e7 f7 1b bc 33 17 68 3d
       0.09120711 0.0070538153 -0.009519554 0.05666275
0003c0 90 ce 47 bc 44 09 ad 3a ac c9 b3 3c 2b 55 8f bc
       -0.012195244 0.0013201614 0.02194675 -0.017496666
0003d0 86 6d 83 bc bb 4b 02 3c ec 69 83 bc d0 13 89 3b
       -0.016043436 0.007952626 -0.016041718 0.00418327
0003e0 01 05 fe 3b f3 0d 13 bc dd be f6 3b e0 ff 62 3c
       0.0077520614 -0.008975494 0.007530077 0.013854951
0003f0 ee fe 2e bb ab 83 4e 3c 15 bc 08 3a ad ea d3 3b
       -0.0026702243 0.012604634 0.00052160147 0.0064671845

_module.model.4.bias f4 [32]
000000 52 0d cb 3b 6c c4 9e 3d 68 4e 54 3d 82 dc 31 3c
       0.0061966563 0.07752308 0.051832587 0.010855796
000010 54 2e 13 3e 1b d5 55 bd c5 a7 3c 3c 10 02 b9 bc
       0.14373142 -0.052205186 0.011514609 -0.022583991
000020 f7 22 70 3c 38 51 38 bc 64 12 d7 ba 56 39 cd bd
       0.014656774 -0.011249833 -0.0016408679 -0.100207016
000030 22 61 5f 3d 4e d5 c0 bc 07 98 79 bc 25 63 73 3d
       0.054535992 -0.023539212 -0.015234 0.059420723
000040 12 9e d4 3d 1a 19 8d bb 7e f3 a1 bd 7c f6 0e 3c
       0.10381712 -0.004305971 -0.079077706 0.008725759
000050 70 5a ab bd 22 71 0c 3e 1d 1c c1 3d 2a c9 84 3b
       -0.08366859 0.13715032 0.0942919 0.004052301
000060 ef e4 7a 3c 4b fd e2 3d 0a bf e7 3b 91 44 48 3c
       0.015313371 0.11083468 0.007072334 0.012223379
000070 08 2a be bc 28 03 90 bd 60 11 69 b9 9e 44 5e 3d
       -0.023213401 -0.07031852 -0.00022227084 0.054264657

_module.model.6.weight f4 [16, 32]
000000 3a b5 8a bc 9f 26 e7 bb 20 6c a3 bc 34 92 75 3c
       -0.016932119 -0.0070541645 -0.019949019 0.014988471
000010 a8 80 31 bd a0 bb a6 3c b4 d5 6d bc 8d 4f 08 3b
       -0.043335587 0.020353138 -0.014516283 0.002079937
000020 2f 3a 0d 3c 55 10 c4 bb 7b b4 2e bc 64 fb d4 3b
       0.008619829 -0.0059833922 -0.010663147 0.0064996947
000030 2d d2 55 bd 02 54 11 3c e2 8c ea 3b a8 56 5e bd
       -0.052202392 0.008870127 0.007157908 -0.05428186
000040 60 13 9a 3c 2f ea 70 bb 93 3b d4 bb 8b dc 25 bc
       0.018808067 -0.0036760678 -0.0064768284 -0.010123382
000050 c8 82 9b 3a 4b 84 be bb d0 2a 41 b9 3f 28 d2 3b
       0.0011864537 -0.0058141104 -0.00018421863 0.006413489
000060 ce db c0 3c f9 3a 49 bd 84 f8 21 bc 92 ad 1f 3c
       0.023542311 -0.049128506 -0.009885911 0.009745972
000070 28 bc 5b 3c d8 bc b0 bb 3a 9c 88 3b 68 b3 6d ba
       0.013411559 -0.0053936057 0.0041690143 -0.0009067566
000080 18 28 e2 3b 04 a1 17 bc e5 11 30 3d 37 ac 7b bc
       0.006901752 -0.009254698 0.042985816 -0.015360883
000090 95 67 2c 3e 7d 9c de bc f3 0c 27 bc 6c fe 3d 39
       0.16836388 -0.027174229 -0.010195958 0.00018119224
0000a0 c4 8f ab bc 07 37 29 3c 44 83 0d 3c e0 74 97 3c
       -0.020942576 0.010328061 0.008637253 0.018488348
0000b0 c2 b5 37 3d 9c a8 b5 3c 6a 2e da 3c df c1 07 3e
       0.044851072 0.022175126 0.02663346 0.1325755
0000c0 8d 72 ce 3b 8b 60 7d 39 07 3d c6 bb 94 dd 88 3b
       0.0063002766 0.00024163925 -0.0060497555 0.004176805
0000d0 11 d0 b2 bb 06 4a 2b 3e ca 8c 13 3c a3 c2 87 3b
       -0.0054569324 0.16727456 0.009005735 0.0041430756
0000e0 6f 9e 33 bc a1 a3 98 3d 15 65 7c bb 63 4c 3b 3c
       -0.0109630665 0.07453085 -0.0038512398 0.011431786
0000f0 a6 b6 bf 3d 23 59 cb 3b 5c d1 11 bb cf 63 2d 3b
       0.09361009 0.0062056943 -0.0022250032 0.0026457196
000100 18 55 f2 3a 35 53 62 3a 03 62 ad bb 6e 62 e9 ba
       0.0018488495 0.00086336146 -0.005291225 -0.0017805824
000110 0c 3a 9d bc 70 16 72 3c b8 48 64 bc 8f ca bb 3a
       -0.019192718 0.014775857 -0.013933353 0.0014327335
000120 bb 19 54 3c 06 69 24 ba 2c f7 7e bb 69 bf 73 bc
       0.012945588 -0.0006271753 -0.003890465 -0.014877179
000130 f5 31 51 bb 39 26 02 bc 16 78 78 bb 75 0a 46 bc
       -0.0031920646 -0.007943683 -0.0037913374 -0.012087454
000140 4a 62 20 bc e5 27 90 bb 0b 95 6a bb 7d 0a 15 bc
       -0.009789059 -0.004399287 -0.0035794403 -0.009096739
000150 06 74 4e bb 14 82 28 3c 53 04 10 3c f6 73 e4 3b
       -0.003150226 0.010284919 0.0087900935 0.0069718314
000160 35 d7 2b bc 36 bb 41 bc 06 fb 1d b7 e5 a7 d6 3b
       -0.010488321 -0.01182442 -9.416375e-06 0.0065507763
000170 08 05 34 3a ca 60 d3 3b 70 38 00 3c 85 70 06 bc
       0.0006867205 0.006450747 0.007825956 -0.008205538
000180 47 cb 00 bb c1 6d 4c bd 67 5c a8 bd 2e cb d7 3b
       -0.0019652413 -0.049909357 -0.08220749 0.0065855
000190 47 43 19 be 68 51 ff bc f6 c1 8c bc c9 f3 2c bc
       -0.1496707 -0.031166747 -0.017182332 -0.01055617
0001a0 2c e6 d5 bb 5b 7a bc 3c 47 55 69 bc fa 78 44 3b
       -0.0065276828 0.023007562 -0.014241523 0.0029979334
0001b0 43 17 ca bd 4f 10 c1 bb 42 01 8f 3c 15 52 5a bd
       -0.09867718 -0.0058918367 0.017456654 -0.053300936
0001c0 d4 78 0f 3c 9e 26 15 bc 0a c2 1f bc e7 4f 4f 3a
       0.008756835 -0.009103445 -0.009750852 0.000790833
0001d0 fa 87 93 3c 30 cb ac 3d 3f d9 fa 3c 8b 47 d2 bc
       0.018009175 0.084371924 0.03062117 -0.02566888
0001e0 87 7f 22 3d 41 5a 38 bd 74 47 c2 bb 13 2b ff ba
       0.0396724 -0.045007948 -0.005928928 -0.0019467793
0001f0 70 cb 7c bd 10 02 a2 ba be 4f 83 3a e8 52 53 3d
       -0.06171745 -0.0012360234 0.0010018272 0.051592737
000200 d8 67 0b bb f0 2d 8f 3c 75 23 a7 3b 48 50 6d bc
       -0.0021271612 0.01747796 0.0051006624 -0.014484473
000210 d7 46 5f 3c 06 6d 42 bc 34 fd 44 bc 20 2e 4c 3b
       0.013627729 -0.0118668135 -0.012023259 0.0031155422
000220 59 88 05 bc a4 4b 1d 3c 81 4a 24 3c d6 7b 9c bc
       -0.008150184 0.009600554 0.010027529 -0.019102018
000230 b6 3d be 3c 54 70 16 3c 1b 6a eb b9 02 45 96 3c
       0.023222785 0.009182055 -0.00044901748 0.018343452
000240 d2 8f 40 3c 61 c3 98 3b d8 98 e4 b9 5c da 9a 3b
       0.011753039 0.004661963 -0.00043601426 0.0047257375
000250 7f ed 09 3c df 6a d9 3c 55 d0 52 3c 4b bd ac 3a
       0.00841844 0.026540218 0.012867053 0.0013178972
000260 4f 0b d3 3b 52 91 64 3c fb 9d 7a bc e1 d3 cc bb
       0.006440557 0.013950663 -0.015296455 -0.006250844
000270 f3 27 23 3b 13 fc 15 3b 20 46 c5 3b e6 cc ca bb
       0.0024895638 0.0022885844 0.0060203224 -0.0061889766
000280 09 25 2c bb 02 3d 49 3d 29 60 db 3d ad c2 04 bb
       -0.0026267192 0.049130447 0.107117005 -0.0020257637
000290 68 56 ae 3d d2 b9 bc bc 35 74 ff bb 83 3b 90 3b
       0.085125744 -0.023037825 -0.0077958354 0.0044016256
0002a0 27 c8 1e 3c ea b7 67 3d 34 ae 49 bc 52 cb 03 bc
       0.009691275 0.05657188 -0.0123096 -0.008044081
0002b0 b6 72 b6 3d b0 22 52 bc 2a 96 ee 3b 8f 94 c1 3d
       0.08908598 -0.012825653 0.0072810845 0.094521634
0002c0 6c 39 6d 3d b4 f4 42 bc ea cc 7a bc 54 75 64 bc
       0.05791609 -0.011899162 -0.015307644 -0.013943989
0002d0 65 27 0f bc 26 91 c7 39 a1 97 1f bc 5a 26 07 bb
       -0.00873742 0.00038064382 -0.009740741 -0.0020622225
0002e0 1b 45 68 3c f8 3e 7a 3d dc 05 2d bc 98 97 50 bc
       0.014176632 0.061095208 -0.010560479 -0.012731455
0002f0 8d 4a 11 3d 3f 78 08 3c 2b ca 24 bb a4 77 96 bc
       0.035471488 0.00832945 -0.0025144916 -0.018367596
000300 80 c0 9d ba 8b f1 02 3c 3c c1 f7 bc db 0a 0a 3c
       -0.0012035519 0.007992159 -0.030243509 0.00842544
000310 d8 5a 58 bd 1c 7f 2a 3d 74 33 82 3c 9d 12 34 3b
       -0.05282101 0.041625127 0.015893675 0.0027476915
000320 dc 67 69 bb 74 75 f6 ba 0a d7 09 bc c3 a0 7c 3c
       -0.0035614884 -0.0018803314 -0.008413086 0.015419188
000330 a0 dd e6 bd 8a 99 2f 3c 33 95 9b bc 95 a1 e1 bd
       -0.1127274 0.010717759 -0.018992042 -0.110171475
000340 fb 2b 8f 3d 37 f3 cd bb 66 e0 49 ba c2 cc 9a bb
       0.069908105 -0.006285097 -0.00077009795 -0.004724116
000350 1c 56 9b b8 73 42 20 bd e8 58 f5 bc 7e a6 27 3a
       -7.407015e-05 -0.03912587 -0.02994962 0.00063953537
000360 e9 b2 ce 3b 65 1d 40 bd 90 13 4d bc 8c e7 ab bc
       0.006307949 -0.046903033 -0.012516871 -0.020984434
000370 44 fd 66 3d 5e f4 87 3c b7 69 5d 3c 8e d3 14 bb
       0.056393877 0.016596016 0.013513974 -0.0022709104
000380 2e e0 9f b8 55 cb 9d bd d1 a3 87 bc 35 6d b0 bb
       -7.6234675e-05 -0.07704798 -0.016557606 -0.0053841122
000390 3e 95 04 3e f9 4f 9c 3d 9d 24 9e 3b 6f 65 1d 3d
       0.12947556 0.07632441 0.004826142 0.038426813
0003a0 16 87 d6 39 82 e4 dc 3d 39 8b 85 3b 2f 1c 02 bd
       0.00040917908 0.10785772 0.0040754345 -0.03176516
0003b0 68 09 51 3e 88 81 ae bb 97 45 89 3b 0b c9 a0 bc
       0.20413744 -0.0053255 0.004189204 -0.019627115
0003c0 2d cf 5c 3e 2c 9c 45 bc 7e d6 18 3a ff 11 86 3b
       0.21563406 -0.01206116 0.00058303017 0.004091501
0003d0 f4 60 46 3d 3c 39 22 3e 42 fb 77 bd b8 d5 a7 ba
       0.048432305 0.15842146 -0.060542352 -0.0012804782
0003e0 43 3b 42 3d 85 f0 07 3d 9a af 08 3b c0 59 94 3c
       0.047419798 0.03318836 0.002085662 0.018109202
0003f0 1f 66 38 bd ff 53 4c 3d 7c 31 0f bc da 11 e7 bc
       -0.045019265 0.049884792 -0.008739825 -0.028206754

_module.model.6.bias f4 [16]
000000 80 4b 32 bb 90 1d 2d 3e 9d 43 da bb d5 49 bf 3d
       -0.0027205646 0.16905808 -0.006660892 0.09340254
000010 b1 68 1c 3d d9 b8 92 bd 80 77 f5 3d ba 00 fe 3d
       0.03818578 -0.07164163 0.119856834 0.12402482
000020 f3 06 51 3d 9d 7a 9d bd 9f a3 3f 3d d5 c2 74 3c
       0.051032018 -0.07689402 0.0467869 0.01493903
000030 84 a0 81 3a 1a 0e 47 3c 09 be 41 3d 44 a8 26 3d
       0.0009889756 0.012149358 0.047300372 0.040687814

_module.model.8.weight f4 [8, 16]
000000 b3 ca 0b 3d 2f 93 e3 bd c7 66 36 3c 41 3f b2 3d
       0.034128856 -0.111120574 0.0111329025 0.08703471
000010 ad e8 cc bb d1 20 2a 3e 5d 3c 95 3d 6e 93 86 be
       -0.006253323 0.16614081 0.07286904 -0.26284355
000020 0c 26 de 3a 0c 9c 2b 3e 7c f2 7f bb 45 50 35 bc
       0.0016948595 0.16758746 -0.0039054444 -0.011066501
000030 3a a1 be 3c dc 8f 89 3d 18 df 8f 3d b9 ce 1a 3e
       0.023270238 0.06716892 0.07024974 0.15117921
000040 56 d2 f8 bb 56 58 71 bc 2e 69 9c bc 0c 00 97 bb
       -0.0075934334 -0.014730534 -0.019093122 -0.00460816
000050 8c 10 4d bd c7 93 ac bc ef 35 d6 3c 3c 4d 9c bc
       -0.05006461 -0.02106656 0.026148764 -0.019079797
000060 94 d8 93 bc c4 0f 39 bc 61 f4 e4 bc 18 a6 c5 bb
       -0.018047608 -0.011295263 -0.02794856 -0.006031763
000070 7b 46 2b bc 67 62 29 bc 67 5c bc 3c 84 1c 05 ba
       -0.010453816 -0.010338402 0.02299328 -0.00050777965
000080 fa 60 cd bb 58 38 c9 3c 36 95 0c bc 80 fd cd bb
       -0.006267664 0.024563 -0.008580497 -0.006286323
000090 a6 27 46 3b cd 03 2a 3c 79 ce 09 bc 19 c0 cb bc
       0.0030236035 0.010376883 -0.008411043 -0.024871873
0000a0 d8 60 c3 3a f5 db 8d bc fc 4c 2e bc 06 41 01 3d
       0.0014906181 -0.017316798 -0.010638472 0.03155615
0000b0 1a 93 8a 3c 86 be 89 bb 7d ea 78 3c 08 db 6a 3c
       0.016915847 -0.0042036204 0.015192625 0.014334448
0000c0 27 69 37 bc a2 92 62 be 4d fa 88 3c 51 e8 44 bd
       -0.011194504 -0.22126248 0.016720915 -0.048073117
0000d0 1c a2 1a 3c c2 6b fe bd e9 34 04 be 43 49 85 bd
       0.009438064 -0.12422897 -0.12910809 -0.06508114
0000e0 2f 7a 24 3e a9 e3 38 be 0a 3d 02 3d 8a 99 ae 3d
       0.16062234 -0.18055595 0.031796493 0.08525379
0000f0 42 69 4b 3b fb 8a 89 be f2 8b 0b be b5 f1 50 be
       0.003103808 -0.26863846 -0.13627604 -0.20404704
000100 b5 8d fa 3d 69 39 27 3d 1d 0b b7 bc 97 c2 d7 3d
       0.1223406 0.040826235 -0.022344166 0.10535162
000110 58 8b 14 3c 0a 47 02 bd 5e dd 6c bd bd b8 72 be
       0.009066425 -0.03180603 -0.0578283 -0.23703285
000120 a2 71 36 bd 65 6c 30 bd 7f 42 b0 bd cd d0 29 3d
       -0.044541962 -0.043072123 -0.08606433 0.041458894
000130 de 69 86 3c 7e 30 50 bd c0 e3 eb bd 92 94 1d be
       0.016407903 -0.050827496 -0.11518049 -0.15388706
000140 76 38 03 bc 8c 1c 70 bb b9 64 11 3d fa f3 98 3d
       -0.008009067 -0.003663811 0.035496447 0.0746841
000150 5a a3 36 3d 6c d4 d8 bd 3a c7 b1 3d 28 98 1e be
       0.044589378 -0.10587391 0.086805776 -0.1548773
000160 7a c4 a7 bd 67 60 5d be ea c0 3b 3c e7 48 0d 3d
       -0.08191772 -0.21618806 0.0114595685 0.034493353
000170 75 a4 12 bb ab 41 b2 bd a4 46 de 3d 0b ff b6 bd
       -0.0022375856 -0.087039314 0.108533174 -0.08935364
000180 0f cc c8 3c 13 30 2c ba 30 3d 03 bc c0 c9 d6 bb
       0.024511365 -0.0006568443 -0.008010194 -0.006554812
000190 74 9e b7 38 f6 f3 b9 3b 51 88 15 3a 46 45 04 bd
       8.755634e-05 0.0056748344 0.00057042117 -0.032292627
0001a0 e1 6e 5e bc a9 be 8e bc 85 01 00 bc f9 bf 6f bc
       -0.01357624 -0.017424898 -0.007812862 -0.014633172
0001b0 40 76 09 bd da 7d 5e 3d d0 b2 34 bb a6 2f 93 bb
       -0.033560038 0.05431924 -0.00275724 -0.004491764
0001c0 00 3d ae bb e9 6d 88 3c 24 5d d9 bc c5 d2 02 bc
       -0.0053173304 0.016653972 -0.02653367 -0.007984822
0001d0 4c 6e 83 bb 1d 04 9d 3c 7f f4 50 3c dc 61 df 3c
       -0.004010951 0.019167 0.012753605 0.027268343
0001e0 e8 fd d9 3c 6c 43 ad 3c 59 0c c5 3b 22 72 fc 3b
       0.02661033 0.021150313 0.006013435 0.0077040354
0001f0 87 f5 b1 bb cc 56 61 3d 5a 44 14 3c 4f 19 34 3d
       -0.0054308805 0.055014417 0.009049499 0.04396945

_module.model.8.bias f4 [8]
000000 36 71 0e be cf 4d 79 bb fc a3 85 bc 45 48 07 3e
       -0.13910374 -0.0038040762 -0.016313545 0.13211162
000010 67 48 97 3c fc 36 5f 3e ca 43 2d bd 3c 3d 1a 3a
       0.018467141 0.21798319 -0.042300977 0.00058837584

_module.model.10.weight f4 [2, 8]
000000 75 a6 61 bd 33 e2 32 3e b5 0e 68 3e dc 73 99 3d
       -0.055090386 0.174691 0.2266186 0.074928015
000010 71 28 8c be 68 b2 e9 bd 7d d4 28 3e ef 08 34 be
       -0.27374604 -0.114109814 0.16487308 -0.17581533
000020 2f 78 9e be 1b 53 30 bd 6a d3 f1 bd d9 40 09 3c
       -0.30951068 -0.043048006 -0.11807902 0.008377277
000030 17 53 1d bb 10 f7 ab 3e d6 4e 6b be 86 eb 8b be
       -0.0024005824 0.3358693 -0.22979292 -0.27328128

_module.model.10.bias f4 [2]
000000 73 fe 07 3e 57 ea 43 3e
       0.13280658 0.19132362
