dp_results/best_dp_model_noise0.0.pth (torch, 30861 bytes, 12 tensors)

_module.model.0.weight f4 [64, 15]
000000 4e e4 94 3c 09 30 78 bc dd a8 cd 3d dc 5e e1 bc
       0.01817527 -0.015148171 0.10041974 -0.027511053
000010 6e f9 f6 bc b6 f2 9f bd cd d1 a1 3d 52 2f 40 3c
       -0.030148234 -0.07809965 0.079013444 0.011730032
000020 28 21 65 3d e6 dd 6b 3d a1 be 47 3d 2c 9f 4c 3d
       0.055939823 0.057584666 0.048765782 0.049956486
000030 3c 3f 0e 3d 8b 70 52 bd 52 85 5e 3d cd 37 24 bc
       0.034728274 -0.05137686 0.054326363 -0.01002307
000040 98 03 ef bb d8 80 c4 bd 21 52 31 3c 08 58 cc bc
       -0.0072941296 -0.095948875 0.010822804 -0.02494432
000050 20 aa bd 3c 10 52 b6 3c 54 a3 c2 3c 94 cf 04 3d
       0.023152411 0.022255927 0.023759522 0.032424524
000060 23 9d 31 3c 9d 58 8d 3d d9 30 ef bb bc 6c 82 3c
       0.010840687 0.06901667 -0.0072995243 0.01592099
000070 ad a1 7a 3b 06 4a 1d bd 09 9a 14 bc 9a 3b 8d bc
       0.003824334 -0.038400672 -0.009069928 -0.017240334
000080 1b 7a 96 bc 0b 09 0b bd 3c 02 da bc df 0f 42 bd
       -0.018368771 -0.03394417 -0.026612394 -0.047378417
000090 0b f3 ac bc 46 64 dc bc bb 0a 27 bd 62 f9 07 bd
       -0.021111986 -0.026903283 -0.040781718 -0.033196814
0000a0 34 91 50 bd a9 d3 10 bd a0 94 b1 ba b3 c5 5d bc
       -0.050919726 -0.035358105 -0.0013548322 -0.013535905
0000b0 ba 1c 24 bd fb 00 bd bd 0b 63 5a 3d ca 66 88 bc
       -0.04006646 -0.09228703 0.05331711 -0.016650576
0000c0 74 4f 80 3d bb c4 b5 3d c7 52 8e 3d c5 7c 16 bd
       0.062651545 0.08875414 0.06949382 -0.036740083
0000d0 a1 70 f1 3c 47 20 0d 3d 22 4e 6f 3c 36 b0 65 3d
       0.029472651 0.03445461 0.014606031 0.05607625
0000e0 d5 9e 28 3d 84 a2 77 bc f6 a8 98 3d 28 4b a8 3b
       0.0411671 -0.01511443 0.07454102 0.0051359124
0000f0 de 05 74 bc a1 9c 82 bc f3 e4 b6 bc 38 7a bf bc
       -0.014893977 -0.015943827 -0.022325968 -0.023373708
000100 01 d2 9c bc 36 c6 11 bd a2 c0 b7 bc 3f ab 3f bd
       -0.019143106 -0.03558942 -0.022430722 -0.046794172
000110 1e 4a 8a bc a2 6d 07 bd 5e e7 2b bd 90 bc 1a bd
       -0.016881045 -0.03306354 -0.041968696 -0.037777483
000120 b2 4c ca 3a 49 ed a4 bc e1 20 45 bd 28 5b a0 3c
       0.0015434234 -0.020132678 -0.04812706 0.019574717
000130 95 73 24 bd a0 d0 b6 3c 38 3c 36 bd 6b 30 0c bd
       -0.04014929 0.022316277 -0.044491023 -0.034225862
000140 84 9c 41 bd 87 64 13 3d ce fc 40 3d 2c c8 b9 3d
       -0.047268406 0.035984542 0.047116093 0.09071383
000150 69 a0 3d 3d 3b 43 96 3d 15 9a 11 3d c2 48 b8 3c
       0.046295557 0.07337042 0.035547335 0.022495631
000160 51 fb 74 bd 5b 97 92 3c e3 99 a2 bb 77 50 4e bc
       -0.059809987 0.017894438 -0.0049621924 -0.0125924265
000170 74 7c b9 bc 6a fa f4 bc 68 b8 c9 bc 25 03 22 bd
       -0.022642352 -0.029904563 -0.024624065 -0.03955378
000180 c8 9c c4 bc 20 16 1d bd 45 54 52 bd c5 90 00 bd
       -0.02400054 -0.03835118 -0.051349897 -0.031388063
000190 60 13 42 bd da 2b 28 bd 8b 8c fb bb a9 4c 28 bd
       -0.04738176 -0.041057445 -0.007676666 -0.041088734
0001a0 ed 31 d0 bc b4 be 87 bd 35 8a b2 bc f3 b7 2b bd
       -0.025414431 -0.066281706 -0.021794418 -0.041923475
0001b0 6f b0 9f 3d f1 f2 64 3d 34 19 cd 3d ab 31 f7 bb
       0.07797324 0.05589575 0.10014573 -0.0075437627
0001c0 4b 18 98 3d 19 45 7f 3d d7 32 49 3d 2a 26 2a bd
       0.074265085 0.062321756 0.04912075 -0.041540302
0001d0 93 88 a9 3d 65 80 6a bc d0 0f 94 3d 08 53 18 bd
       0.082780026 -0.014312838 0.072295785 -0.03718856
0001e0 49 36 8e 3d ed 7a 9e bc 27 5a 32 3d 26 2c af bd
       0.06943948 -0.019345725 0.043543007 -0.085533425
0001f0 aa 2b 50 bd 5f 54 82 bc d0 46 d5 3a 8f e4 11 bc
       -0.05082289 -0.015909372 0.0016271714 -0.00890459
000200 88 d7 87 3d fb a3 90 3d b7 7c ca 3d a5 46 03 bd
       0.06632906 0.07062527 0.09887069 -0.032049794
000210 4c 7a 46 bd 2a 82 46 3d 09 c9 8d 3d 93 f7 61 bd
       -0.048456475 0.048463978 0.0692311 -0.055167746
000220 35 8a 42 3d ae 61 4b 3d f8 07 fb bc 61 0b d0 bc
       0.047495086 0.0496537 -0.030643448 -0.02539605
000230 30 ae 26 3d dc a9 30 bd 73 18 b5 3c f3 26 21 3d
       0.040693462 -0.04313074 0.022106385 0.039343785
000240 8e 0b 03 3c 3f c2 33 3c 08 c2 0c 3b 05 37 bf 3c
       0.00799836 0.010971605 0.0021477956 0.023341665
000250 bf d9 23 bb fc 94 2e 3d 64 8f 3e bd f7 8c a2 bc
       -0.0025001613 0.04262255 -0.046523467 -0.019842608
000260 80 cf 21 39 cb 55 63 bc 60 a8 6c bc 78 03 d3 3a
       0.00015431456 -0.013875435 -0.014444441 0.0016099056
000270 30 e8 ff 3c 8d f8 34 3d 98 d5 9d ba 53 cf 1b 3c
       0.031238645 0.04418235 -0.0012041805 0.009509879
000280 eb b1 2a bc df f3 e0 3b e2 8d ac 3c 5c 0d 37 3d
       -0.0104183955 0.006865009 0.021063749 0.044690475
000290 b7 70 a1 3a 38 97 48 3d a0 12 22 3d 9d 3f d3 bd
       0.0012316917 0.04897234 0.039568543 -0.10314868
0002a0 7f 3b 70 bd 05 b0 db bd f6 8c 1e 3d dc 86 8f 3c
       -0.05865049 -0.107269324 0.03870865 0.01752036
0002b0 00 f1 ec 3c a2 6d cf 3d 67 a1 6d 3d 2f cc 83 3d
       0.028923512 0.10128333 0.058015253 0.06435429
0002c0 64 b8 b8 3d d3 c5 21 bd 50 10 8c 3c 4f f1 5b 3d
       0.09019545 -0.0394953 0.017097622 0.053696927
0002d0 2a 06 6d bc ef d5 63 bc e3 e0 03 bd 05 bd f6 bc
       -0.014466802 -0.013905986 -0.03219689 -0.030119428
0002e0 b5 2f 02 bd 6b 44 2f bd 58 e8 06 bd d3 01 01 bd
       -0.03178378 -0.042789858 -0.032936424 -0.03149588
0002f0 f9 3b 40 bd f9 05 3b bd 2a ea 37 bd 01 da e7 bc
       -0.046932194 -0.045659993 -0.04490105 -0.028302195
000300 be 27 06 bc ec 78 00 bd ba dd 45 bd a4 6b 19 3d
       -0.008188186 -0.03136532 -0.048307158 0.03745617
000310 cd 68 56 3d b3 f7 2e bc c4 3e af bd 38 7a 2b bd
       0.05234604 -0.010679173 -0.085568935 -0.041864604
000320 f6 31 80 bc 79 b4 a6 3c 47 32 85 bd 36 a8 99 3d
       -0.015648823 0.020349728 -0.0650373 0.07502787
000330 58 d9 04 3d 47 ab 89 3d 12 00 5b 3d 73 16 36 bd
       0.032433838 0.06722122 0.053466864 -0.044455003
000340 c1 9c 7e 3d 71 a0 7c 3d 32 56 70 bc db b1 2f bd
       0.06216121 0.061676446 -0.014668988 -0.042894226
000350 f1 cf db bc f2 45 49 3d 7d 3c ae 3c b6 8f f9 3c
       -0.026832553 0.04913897 0.021269077 0.030464035
000360 cd cf d1 3c e6 16 0a 3d 41 99 1a 3d ee 5c 81 bb
       0.025611782 0.033713244 0.03774381 -0.0039478457
000370 e0 b6 3e bd 97 ea b8 3c a2 58 0e 3d ca f0 9b 3c
       -0.046561122 0.022572799 0.034752496 0.019035716
000380 56 d5 95 3c 52 28 1c bd 77 2d 9c 3d 25 eb 79 bd
       0.018290203 -0.03812439 0.07625859 -0.061015267
000390 a6 58 92 3d 29 2e 14 3d 0b 6b 92 3d 65 13 da bc
       0.071458146 0.036176834 0.07149323 -0.026620576
0003a0 e7 18 2e bd d1 7b 01 3e 01 83 14 3d 05 86 7e 3d
       -0.042504217 0.12644888 0.036257748 0.06213953
0003b0 ff f0 6d 3d bb 04 a6 bd 5e b0 94 3d 86 8d 45 bd
       0.05809116 -0.08106371 0.07260202 -0.04823067
0003c0 60 89 18 bd ae 8f 1d 3d 7e 8c 1b 3d 7e 97 73 3d
       -0.037240386 0.0384671 0.03797578 0.059470646
0003d0 af 59 e9 3d f3 93 5d 3d 5a fa e4 bc 63 6b f9 3c
       0.11394059 0.054096173 -0.027951408 0.030446714
0003e0 33 7d 1c bc d4 2f 83 bd a5 2f cf bc ad 90 ca 3c
       -0.009551334 -0.06405607 -0.025291273 0.02472719
0003f0 70 43 6b 3d af ee eb 3d 43 e6 ac bb 48 5a 3a bd
       0.05743736 0.11520135 -0.005276473 -0.045496255

_module.model.0.bias f4 [64]
000000 11 69 3f 3d a0 a3 12 3d cf 13 24 bc bd e2 8f 3d
       0.04673106 0.035800576 -0.010014488 0.07025669
000010 ec 71 25 bc 7e c8 30 3d 92 11 37 bb 3b 2c 1b 3d
       -0.010097962 0.043159954 -0.0027934057 0.03788398
000020 4b ee f8 3c 1a 5f 67 3d 98 a5 43 3d cb d5 b6 3d
       0.030387064 0.05648718 0.047765344 0.089274965
000030 b3 1f 10 bc 61 e2 61 3d 0f 44 7e 3c e2 ad 2c 3b
       -0.00879662 0.055147532 0.015519156 0.002634876
000040 1a db 25 3c 96 0f 97 3d 01 fb 97 3d cd cb 87 bc
       0.010123039 0.0737602 0.07420922 -0.016576672
000050 0f 28 85 3d d4 26 6c bc 15 3b eb 3d 64 a6 02 bc
       0.06501781 -0.014413554 0.114858784 -0.007974241
000060 d8 ea 79 3d 26 a8 25 bc c1 25 41 3d 4d 20 00 3e
       0.06101498 -0.0101108905 0.047155146 0.12512322
000070 e4 82 6d bc 2d bf 60 3c 58 62 bd 3d 60 63 f7 bb
       -0.014496539 0.013717455 0.09247273 -0.007549688
000080 e3 9c 1a 3d da 20 04 3d ac 88 28 3d 8d 57 85 3d
       0.037747275 0.032257892 0.041145965 0.065108396
000090 ff a6 a0 3d 0d 87 fb 3d c0 08 9c 3d 22 8a 8f 3c
       0.07844352 0.12281618 0.076188564 0.017521922
0000a0 49 44 53 3d 3a 50 3f 3d 06 96 9b 3d 8d 74 52 3d
       0.051578794 0.04670737 0.07596974 0.051380683
0000b0 cc be 02 3b a3 37 88 3c 56 3a ed 3c 4d c1 1f 3d
       0.001995015 0.016628092 0.02895848 0.039002705
0000c0 f1 ec 39 3d 02 0f d6 3c df dd 06 3d a5 31 48 3d
       0.04539198 0.026130203 0.032926437 0.04887547
0000d0 7f e2 8b 3d e1 c8 18 3d 5e 40 2d bc 9b c7 8a bb
       0.0683031 0.037300948 -0.010574428 -0.0042352206
0000e0 e7 d7 6c 3d 50 70 d6 3d ca 3d 87 3d d4 12 a5 3d
       0.057823088 0.10470641 0.06603582 0.08060232
0000f0 ff 5b 3f 3d 3e f1 2b 3d 83 23 43 3d 5b 9e 94 3d
       0.046718594 0.041978113 0.04764129 0.072567664

_module.model.2.weight f4 [48, 64]
000000 26 60 f1 bb 10 a7 47 bc 4a 88 8c bb 33 82 6b 3a
       -0.007366198 -0.012185827 -0.004288708 0.000898394
000010 59 77 cd bb cf e0 0f bc 2a ea b3 bb 6b c5 86 bb
       -0.006270331 -0.008781626 -0.005490561 -0.0041128895
000020 25 0d 45 bc e2 c2 74 bc 02 94 64 3a 0b 59 2c bc
       -0.01202706 -0.014939042 0.00087195646 -0.010519276
000030 35 5a e4 bb 99 17 46 3b 34 cc 30 bc 42 54 de 3a
       -0.0069687613 0.0030226468 -0.010790873 0.0016962367
000040 29 30 7f bc 56 56 5c bc 8b 60 77 ba c5 b0 e2 3a
       -0.015575447 -0.0134483185 -0.0009436688 0.0017295113
000050 44 48 9a bb 44 82 b6 bb c3 b7 15 bb e1 cc da bb
       -0.0047083218 -0.005569728 -0.0022845126 -0.0066772555
000060 fb 39 36 bc 1a 49 0e bb ec cc 15 bc 31 11 40 bc
       -0.011122222 -0.0021711052 -0.009143095 -0.011722849
000070 cd 5d 56 bc a0 16 91 bb 9d 53 32 bc 9f ff 8a bb
       -0.013083887 -0.004427746 -0.010884193 -0.004241898
000080 c5 2b 84 3a 42 f1 22 bc 1a f4 95 bb 48 a5 ba bb
       0.0010083845 -0.009945216 -0.0045762183 -0.0056959726
000090 fa be 0e 3b 16 10 e6 bb 9f 53 19 bc fd 87 70 38
       0.0021781311 -0.0070209606 -0.009358316 5.7347108e-05
0000a0 1e 5f 2a bc 2a d8 20 bc c9 4d e0 bb ae 92 a3 b9
       -0.010398654 -0.0098171625 -0.00684521 -0.00031199068
0000b0 a3 38 00 bb 50 bd 85 bb 4b e0 db bb 7f 72 8d bb
       -0.0019565008 -0.0040814057 -0.0067100874 -0.0043166275
0000c0 3d 1a 1b bc fe a2 88 ba b3 a8 ac bb 1d 32 97 bb
       -0.009466705 -0.0010424552 -0.005269134 -0.0046141283
0000d0 20 39 67 3b b2 40 2c bc cf 9c 4b 3c c2 a1 97 bb
       0.0035281852 -0.010513471 0.012427523 -0.0046274373
0000e0 c8 55 aa bb 11 5d 43 bc 2f a8 45 bb e7 4f c9 bb
       -0.005198214 -0.011924044 -0.003016006 -0.0061435583
0000f0 c2 7e 55 bc 71 2c 5b bb e4 37 84 bb ee 26 f7 bb
       -0.01303071 -0.0033443237 -0.004034983 -0.0075424826
000100 1d 28 85 bc 00 35 99 bc 60 99 7e bc b5 e5 22 bc
       -0.016254479 -0.01870203 -0.015539497 -0.009942462
000110 b9 47 8a bc f5 22 55 ba 7c 3e 88 bc e0 6a 4b bc
       -0.016879903 -0.0008130514 -0.016631357 -0.012415618
000120 6a f9 4f bb 0b 98 86 bb 12 59 93 ba fb 00 92 bc
       -0.0031734356 -0.0041074804 -0.0011241755 -0.017822733
000130 5f 66 bb 3a ea 1a 0b 3a 91 7d 47 b9 3f 87 e2 bb
       0.0014297477 0.00053064397 -0.00019024896 -0.0069130952
000140 c8 7c 52 bc f7 20 ed ba 05 ab 77 3b b3 96 27 bb
       -0.012847133 -0.0018091489 0.0037791145 -0.0025572001
000150 d6 a2 92 bb 88 8c 29 bc 8f 74 ce bb 37 68 dd ba
       -0.004474978 -0.010348447 -0.006300516 -0.001689202
000160 a2 00 12 bc 6a fd df ba 87 cc 12 bb ed 00 a0 bc
       -0.008911284 -0.0017089073 -0.002239974 -0.019531691
000170 67 1f 0a bc 47 7c 24 bc 2f be 35 bc 60 af f9 bb
       -0.008430338 -0.010039396 -0.011092707 -0.0076197833
000180 71 56 44 bc 22 f9 53 bc 64 be 1a bc c6 f9 15 bc
       -0.0119835 -0.012937816 -0.009444807 -0.009153789
000190 9c e1 76 bc 3b 3d 79 bc 3b be 00 bc 94 42 10 3b
       -0.015068438 -0.015212352 -0.0078578545 0.002201234
0001a0 b2 7d 31 bc e8 d3 7a bc e6 cd 2e bb a5 95 82 3a
       -0.010833191 -0.015309311 -0.0026673018 0.000996281
0001b0 a1 d5 56 bc a1 d6 2b b9 53 5c 1e bc 84 bd 86 bc
       -0.013112457 -0.00016387786 -0.0096655665 -0.01644779
0001c0 18 c7 88 bc aa 24 10 bc 46 0a 8a bb c7 3a 27 bc
       -0.016696498 -0.008797804 -0.0042126505 -0.010206885
0001d0 1f 0d 5c bc 6a 77 96 bc 6b fe 87 3b 98 5d 30 3b
       -0.013430863 -0.018367488 0.004150202 0.0026911255
0001e0 ed cb 90 bb 5d 8e 65 b8 c1 e3 2c bb 46 2f 62 bb
       -0.004418841 -5.473044e-05 -0.002638087 -0.003451304
0001f0 5c a5 59 bb c4 99 d0 ba 8e be 50 bb 74 09 49 bc
       -0.0033210134 -0.0015914966 -0.003185186 -0.01227032
000200 ee 9a 45 bd 45 7e f4 3c cf 7e 40 3d e2 f4 37 bd
       -0.048243456 0.029845366 0.046995934 -0.044911273
000210 82 99 13 3d ea 29 7c bc f2 bc 13 3d 54 55 26 bd
       0.03603507 -0.0153908525 0.036068864 -0.04060872
000220 a1 9f 2b bd 38 cd a0 3c bd 45 2c bc 47 26 39 bd
       -0.04190028 0.019629106 -0.010514674 -0.04520252
000230 df e2 46 3d ba c4 bd bc 74 5b 8a 3c 1f 02 1c bd
       0.048556205 -0.023165096 0.016889311 -0.03808796
000240 ea 0c 1c bc 2c ed cd 3b 0f 04 0d bd da f3 73 3d
       -0.009524563 0.0062843766 -0.0344277 0.059558727
000250 72 f3 12 bd 0e a0 28 bb 85 23 49 bd 6e 44 87 3d
       -0.0358767 -0.0025730166 -0.04910614 0.06604849
000260 b4 54 16 bd bd 77 8a 3d aa 16 10 bd 0a e3 fc 3c
       -0.036701873 0.067611195 -0.035177864 0.03086998
000270 9a e3 85 bc 63 13 24 bd af be 0b bb 01 91 96 3d
       -0.01634388 -0.04005755 -0.0021323373 0.07351876
000280 d6 39 30 bd 18 2e 14 3d 3c f0 c4 bc 2e 4e 6e bc
       -0.043023907 0.03617677 -0.024040334 -0.014545007
000290 25 a6 97 3d 39 25 22 bd fb 9b 0d bd c4 70 05 bd
       0.074047364 -0.03958628 -0.034572583 -0.032578245
0002a0 3b 32 88 3d 32 92 29 bc a4 e8 2a bc 78 27 05 3c
       0.06650206 -0.010349797 -0.010431442 0.008127086
0002b0 c4 c6 21 3d 26 7b b2 3c 45 96 22 bd a5 92 20 3d
       0.0394962 0.021787237 -0.03969409 0.03920235
0002c0 ac bd a2 bb da 86 ae 3c e6 6a 05 bd a6 2a 3a bc
       -0.0049664583 0.021304537 -0.03257265 -0.011362707
0002d0 bf dc 66 3c d6 c6 08 bc 34 33 90 3d fb 90 cc 3d
       0.014090716 -0.008348187 0.07041016 0.0998859
0002e0 b5 fd 84 3c 96 3b e6 bc 4d e9 bf bc a6 b7 27 bd
       0.016234258 -0.028104585 -0.023426676 -0.040946625
0002f0 1a 96 1d bd 88 b0 0c bd 19 f9 c9 bc b4 af 2e bd
       -0.038473226 -0.03434804 -0.024654912 -0.042648032
000300 de a8 68 bb 9e 08 7e ba 70 20 bf bb 86 08 eb ba
       -0.0035501043 -0.0009690615 -0.0058327243 -0.0017931617
000310 f0 9b 5b 3a af b8 00 3c 71 b1 ee ba d5 8e 18 bc
       0.00083774235 0.007856532 -0.0018210841 -0.009311398
000320 ac 91 15 bc e0 33 68 bb 12 74 51 bb d8 0c b6 ba
       -0.009128969 -0.003543131 -0.0031960052 -0.0013889326
000330 ad 42 f8 bb ec d2 77 bb 81 53 2b 3b 29 69 ba ba
       -0.0075763077 -0.0037814928 0.0026142302 -0.0014222014
000340 67 56 53 bb 5e 05 db b9 cf 5c fa ba 6e 6d a5 39
       -0.0032247545 -0.00041774934 -0.0019101145 0.00031552784
000350 4a 20 a6 3a e9 5b 06 bc 2c 45 4d bb 65 f5 24 3a
       0.0012674418 -0.008200624 -0.0031321747 0.000629267
000360 28 f2 c1 ba 54 7c 29 bb 42 5c 85 bb 62 2f 19 bb
       -0.00147969 -0.002586146 -0.004069836 -0.002337419
000370 af 24 05 ba e8 7f a8 3a 6e f4 11 bc 84 71 8c ba
       -0.00050790136 0.0012855502 -0.008908374 -0.0010714983
000380 8f 71 11 3b bb ec ed ba 94 0f 93 bb ed 77 07 3a
       0.002219293 -0.0018152216 -0.004487941 0.00051677116
000390 46 a3 5f ba a7 bf 89 bb 33 12 dd ba 73 20 51 ba
       -0.00085311045 -0.004203755 -0.0016866386 -0.00079775526
0003a0 c2 71 be bb bc 86 68 ba 66 a2 a3 bb eb cf 10 bb
       -0.005811901 -0.00088701746 -0.0049937246 -0.0022096585
0003b0 5c 6f 9b bb 68 16 96 bb 2a 5b 91 39 8d 92 26 bb
       -0.0047434997 -0.0045803078 0.00027724478 -0.002541694
0003c0 79 81 48 bb 60 5b 08 bc e6 00 b0 3b 6a 4e 44 bb
       -0.003059475 -0.008322567 0.005371201 -0.0029953965
0003d0 c1 c0 74 3a b2 52 b4 bb c8 6f 52 bb 3c 70 57 3b
       0.0009336584 -0.005503022 -0.0032110084 0.0032873293
0003e0 85 80 94 bb df ee 27 bb e1 dd 81 3b a1 f0 77 3b
       -0.0045319223 -0.0025624556 0.0039632176 0.0037832635
0003f0 94 e5 07 bc 28 92 1a ba c8 39 47 bb 2a b7 2d bb
       -0.008294482 -0.0005896413 -0.003039943 -0.002650688

_module.model.2.bias f4 [48]
000000 6f c2 31 bb 18 7b 6d ba 3a a5 7f 3d 1c 01 ff bb
       -0.0027123948 -0.0009059175 0.06241343 -0.0077821147
000010 e6 b6 0d 3c 24 69 39 3c ee ed 15 bc b7 cd 8e bb
       0.008649563 0.011316571 -0.009150965 -0.004358019
000020 17 9e 86 3d e0 80 20 3d 60 cd 42 bc 8c 48 fc bb
       0.06573122 0.039185405 -0.0118897855 -0.007699078
000030 05 b2 69 bc 8f 5c dc bc a4 c1 ba ba 0a 0a 8b 3c
       -0.014263635 -0.026899604 -0.0014248383 0.01697256
000040 f6 65 6f 3d 1a ef 6e 3b de 9b 8c bc 3f e4 87 3d
       0.058446847 0.0036458434 -0.017164167 0.06635331
000050 d5 83 ac bc 98 24 dd bb 01 28 95 3d c5 1d 8b 3d
       -0.021058956 -0.006748747 0.07283021 0.067927875
000060 f5 e2 d4 3c 4d c1 07 3d 3d c4 a0 3d cb 06 08 bc
       0.025987128 0.03314333 0.078499295 -0.008302401
000070 31 b5 fd 3c 6a 0f 54 3d 3f 32 94 3d 74 45 8c 3a
       0.030970188 0.051772512 0.07236146 0.0010701851
000080 2c 0f b9 bb 3f cc 0c 3d f0 2b aa 3d 27 2d 26 bc
       -0.0056475606 0.03437447 0.08309162 -0.010142601
000090 0c 65 9b 3d f5 e2 cc 3d 0a 45 53 3c 4d 9c 8c bc
       0.075876325 0.10004226 0.012894878 -0.017164374
0000a0 27 4b 7f bc c4 27 a4 3c 61 4f 00 bc 5f 33 7a 3d
       -0.015581883 0.020038493 -0.007831425 0.061084148
0000b0 a9 8e 4f 3d 89 1a 7c bb 27 db 06 bb 4a 26 93 3d
       0.05067316 -0.0038467965 -0.0020577402 0.071850374

_module.model.4.weight f4 [32, 48]
000000 b0 93 1d bb 71 e8 08 bb e4 ca 04 bc cb 0c cb ba
       -0.0024044327 -0.00208905 -0.0081050135 -0.0015491484
000010 4e 6a 71 3b 56 1d 1c bc e3 0a 84 3b 0d 9e 87 3a
       0.0036837044 -0.009528479 0.004029618 0.0010346785
000020 35 d0 00 bb e9 df 35 bc e0 58 02 ba 4e db 9d b9
       -0.001965535 -0.011100748 -0.000497235 -0.00030108768
000030 72 94 af 3a f1 65 15 3b 1f f6 6f ba d6 32 20 3c
       0.001339568 0.0022796358 -0.00091538014 0.009777745
000040 b8 6f db 3b 02 3c 95 3b 79 5e 2a 3a 15 af 43 bb
       0.0066966675 0.0045542726 0.0006499063 -0.0029858996
000050 92 37 56 ba 22 6d 8d bb 42 a6 68 bb c6 63 9c bb
       -0.0008171733 -0.004315988 -0.0035499488 -0.004772636
000060 f2 52 49 ba eb 04 f5 bb 3d e9 09 bc bf 63 ab bb
       -0.00076799013 -0.007477393 -0.008417425 -0.0052303965
000070 5d e2 ed bb 66 87 77 bb 16 5a ba bb 10 c8 0f 3b
       -0.0072596506 -0.0037769913 -0.0056870086 0.0021939315
000080 58 fe 28 39 df df 00 3c ed 95 60 bb 0a b4 4d bb
       0.00016116479 0.007865875 -0.003426905 -0.003138783
000090 88 75 1b bc 43 7b 33 3b 89 c9 18 bc 2a 1b 5e bb
       -0.009488471 0.0027386702 -0.0093253935 -0.0033890703
0000a0 2c 29 44 3b 11 84 92 bb fd e3 b9 3b bf 51 88 3b
       0.0029931767 -0.00447131 0.0056729303 0.0041601355
0000b0 1d 02 96 bb 31 d2 35 3b f7 c0 25 bc fa 06 11 bc
       -0.0045778886 0.0027743692 -0.010116807 -0.008851761
0000c0 9b c6 22 bc 0c e7 16 bc 02 97 bb bb 89 91 c1 3a
       -0.009935047 -0.009210359 -0.0057247886 0.0014768104
0000d0 13 4a 61 3a 0d 35 45 bd 23 4c 22 bc fa a7 58 bc
       0.0008594107 -0.048146296 -0.009905848 -0.0132236425
0000e0 75 93 8a 3d 9d b9 47 3d a6 8a 5a ba cd f0 79 bb
       0.067664064 0.048761 -0.00083367 -0.0038137913
0000f0 92 82 f8 3a 0c 9e a6 bb 48 91 4b bc 15 4c 7e 3b
       0.0018959811 -0.0050847586 -0.0124247745 0.0038802673
000100 00 b5 e4 ba df ec 2c 3b 8a 02 4a 3c 98 c6 5f 3d
       -0.0017448962 0.0026386303 0.012329707 0.054632753
000110 f4 1a 51 3a 60 48 72 bc a5 02 72 3d bf fc 82 3d
       0.00079767336 -0.014787763 0.059084553 0.06395864
000120 9a 73 4e bb d6 d6 62 bc 26 10 6f 3d 45 8e e9 ba
       -0.003150201 -0.013845166 0.05836501 -0.0017818889
000130 f6 bc 14 bd a8 40 e6 bb e2 c9 86 3d 6a 87 0f bc
       -0.03631302 -0.0070267506 0.06581475 -0.008760313
000140 0d 88 13 bc 2b cb 69 bc f7 ac 92 bb 4a 3c 49 bb
       -0.009004605 -0.01426963 -0.0044761854 -0.00307061
000150 c5 f9 56 3d 12 83 83 3d 02 93 86 bd f0 80 7a 3c
       0.052484293 0.06421484 -0.06571008 0.01528953
000160 8d 6d e4 3b 62 4b 00 3d fe 16 23 3c a4 8b 87 3d
       0.0069710673 0.03132189 0.009954212 0.06618431
000170 8c cd ad bb 1f c3 30 bb a4 6c b9 bc 68 2a d2 3a
       -0.005304044 -0.002697177 -0.022634812 0.0016034367
000180 1d d0 4f bb aa d3 c8 ba 58 df c0 bb f2 b7 bc bb
       -0.0031709739 -0.001532187 -0.0058859996 -0.0057592327
000190 5d d9 6a bc a2 e4 03 bd 90 33 f9 38 ca de 92 3a
       -0.01433405 -0.032200463 0.000118828495 0.0011205312
0001a0 25 3e 6a 3d 65 65 43 3d d9 e1 ab ba 4b b6 d2 bc
       0.057188172 0.04770412 -0.0013113572 -0.02572169
0001b0 4d 4f 19 bb a0 bb a9 3b 95 e2 10 bc cc c5 7b bc
       -0.0023393214 0.0051798373 -0.008843084 -0.015366983
0001c0 10 85 80 bd 1c a0 bb bb 10 75 37 3c 11 2f 5c 3d
       -0.0627538 -0.0057258736 0.0111973435 0.053755824
0001d0 d2 ac a6 3a e7 f4 54 bc 1b bd 4e 3d 8f 18 4b 3d
       0.0012716299 -0.012997842 0.050473314 0.049583968
0001e0 43 ea 9b bc 89 10 a5 ba a6 51 47 3d 2a 6c 32 bb
       -0.019032603 -0.0012593429 0.04866185 -0.0027225115
0001f0 9c 6f e0 bd ed 97 3c 3c 48 a6 67 3d 77 92 22 bc
       -0.10958788 0.011510831 0.056555063 -0.009922615
000200 4d 14 bb 3b 91 7e f9 3c a5 8b 99 bc 40 f4 2e bc
       0.005709207 0.03045586 -0.018743346 -0.010678351
000210 f2 74 23 3d 9a 7a 43 3d b6 e6 18 bd a5 64 00 3c
       0.03990645 0.047724344 -0.037329398 0.0078364955
000220 7a fe ec bb ac 44 03 3d 7c 18 65 3b e5 d3 83 3d
       -0.0072324844 0.032047912 0.003495722 0.064369
000230 66 fa d0 bc e7 60 a6 3c c8 9f bb bc ec 0c 08 3c
       -0.025510024 0.020309879 -0.022903338 0.008303862
000240 d8 b0 b2 bb 54 1d 89 3b dd 81 03 bc 1e ba 64 ba
       -0.0054532103 0.0041844044 -0.008026567 -0.00087252434
000250 33 59 e5 bb 4e f6 b6 bb fd c5 3e ba 75 a0 0c bc
       -0.0069991588 -0.005583561 -0.00072774274 -0.008583178
000260 0b 8a 09 bc cb 82 1f 3c 17 53 10 bb 35 3e 1b bc
       -0.008394728 0.009735773 -0.0022022182 -0.0094752805
000270 ad 37 1d 3b ca 2f 21 bc 79 e0 06 bc 89 3b fe bb
       0.0023989484 -0.009838054 -0.008232229 -0.007758562
000280 cf 99 22 bc b4 59 b4 bb 87 45 b6 ba ee 91 d6 bb
       -0.009924366 -0.0055038575 -0.0013906219 -0.006548158
000290 20 65 e5 3a 80 d9 5a bb b2 58 3a 3b 25 79 b8 bb
       0.0017501451 -0.00333938 0.0028434214 -0.005629676
0002a0 ac 6c 84 bb 65 7d 9d bb e6 a7 b1 bb c3 75 7f 39
       -0.004041275 -0.004806208 -0.0054216264 0.00024362565
0002b0 ac 6f ae bb c5 25 53 bb d0 7e 89 b9 ed f2 8d 3b
       -0.005323371 -0.0032218557 -0.0002622516 0.0043319375
0002c0 4b 88 9f bb d0 77 81 bc f2 d5 db bb 16 82 87 3a
       -0.0048685423 -0.015804201 -0.006708854 0.0010338451
0002d0 37 68 c4 bb 24 21 d2 bb 5a 45 b1 bb 2c 3f 8f 3b
       -0.0059938687 -0.006412642 -0.0054098787 0.0043715443
0002e0 20 6b 0b bb 46 05 8a bb dc d0 60 ba e2 82 c9 3a
       -0.0021273568 -0.0042120544 -0.00085760443 0.0015374089
0002f0 c0 04 22 bc e3 7d 7c bb 59 78 87 3b 6d a6 1d bc
       -0.009888828 -0.0038527183 0.0041342196 -0.0096221985
000300 19 ca 2f bb 22 26 15 bd 42 d3 50 3d 62 40 c0 bb
       -0.002682334 -0.03641332 0.05098272 -0.00586705
000310 3d d4 35 bd 0d d2 cb 3c 5b cb 81 3a 2c f5 c1 b9
       -0.04439186 0.024880433 0.0009902524 -0.00036994496
000320 05 2d 87 bd 8c ca aa bc 83 31 80 bb 76 e3 fe 3c
       -0.06600384 -0.020848535 -0.0039121523 0.031114321
000330 b8 69 c7 3b 79 7c 10 3c 6a 86 7d bb 0f bc 55 bc
       0.0060856007 0.008818739 -0.0038684853 -0.013045325
000340 2e f4 94 3c d4 d3 1b bc 9e af 90 b8 0e b2 50 bd
       0.01818284 -0.009510953 -6.899166e-05 -0.050951056
000350 94 08 cf ba 1c ce c2 bb 04 5b 76 bd db 4b 80 bd
       -0.0015795403 -0.0059449803 -0.060145393 -0.06264468
000360 c7 a5 53 3b a1 79 d4 bb d4 a8 53 bd e1 11 5d bc
       0.0032294856 -0.006484226 -0.05167468 -0.013493032
000370 e2 ef d4 bc 60 17 42 3d 4d ad 74 bd 0c 1b f0 3b
       -0.025993291 0.047385573 -0.059735585 0.007327443
000380 2b 34 04 3d ff 02 99 3c 8b 23 a4 3c 6c 14 f6 3c
       0.032276314 0.018678186 0.02003648 0.030039035
000390 a2 8e 5c bd 1a a4 41 bd 52 2d df 3d 1b 48 bb bc
       -0.053846963 -0.04727564 0.10897316 -0.022861531
0003a0 91 eb 06 3c 51 58 da bc d1 73 be 3c b7 8b 67 bd
       0.008234874 -0.02665344 0.023248585 -0.056529727
0003b0 a4 18 b4 3d 59 93 f9 3b 4e db 22 bc ab aa 53 3d
       0.08793762 0.007616442 -0.009939982 0.051676434
0003c0 dc 5f 42 bb 2c b4 9f bb 70 98 8b 3c cb 36 5a ba
       -0.0029659187 -0.004873773 0.017040461 -0.0008324205
0003d0 da 84 d6 bb 71 c9 09 3b 40 bd b2 ba 1c ff 2a bb
       -0.006546599 0.002102461 -0.0013636723 -0.0026091998
0003e0 ae 77 8a bb ee e3 84 bb 59 16 fd 3a 3d 7a 74 ba
       -0.0042256927 -0.0040554916 0.0019309028 -0.0009326076
0003f0 87 35 2d bb 4d 9a 67 ba e9 8c 23 3c 46 7a ca 39
       -0.002642961 -0.00088349433 0.009982326 0.00038619543

_module.model.4.bias f4 [32]
000000 23 41 2f bc 8e 80 f4 3d 27 83 a9 3d 8a e8 47 bb
       -0.010696682 0.11938582 0.082769684 -0.0030503594
000010 e3 26 12 3e ed ff 4d bd 71 a7 87 3d 3d 26 1d bd
       0.14272647 -0.050292898 0.06623734 -0.038366545
000020 fe e4 77 3d f2 28 88 bc 58 34 8c 3d ab 65 e8 bd
       0.06052112 -0.016621087 0.06845921 -0.113475166
000030 46 d4 3f 3d bc 84 9f bc 50 66 a2 bc 89 f0 68 3d
       0.0468333 -0.019472472 -0.019824177 0.056870017
000040 8a e6 bf 3d 59 7d 8d 3d 60 f0 a1 bd fe a3 8a 3d
       0.09370144 0.06908674 -0.07907176 0.0676956
000050 92 3a a0 bd 07 29 0b 3e fa 7e 18 3e 93 ec 7c 3d
       -0.078236714 0.1358987 0.14892188 0.061749052
000060 1f 56 4a 3d 50 b8 e7 3d c6 8b 8a 3d df 10 73 3d
       0.049398538 0.11314452 0.06764941 0.05934226
000070 5b 1f ff bc 8e 6d 85 bd d7 5a c3 bb 6f bf c7 3d
       -0.031142881 -0.065150365 -0.0059617567 0.0975331

_module.model.6.weight f4 [16, 32]
000000 d5 98 bf bb 2f f0 1e 3c a6 77 93 bc fd e6 c4 ba
       -0.0058470764 0.009700819 -0.018001389 -0.0015022453
000010 99 78 f1 bc e8 eb b9 3c 62 36 fb ba 50 63 20 bb
       -0.02947645 0.022695497 -0.0019165988 -0.0024473257
000020 99 ad 23 3c c4 42 53 ba d3 1c 92 bb 01 14 45 3c
       0.009990119 -0.000805896 -0.0044590025 0.012028695
000030 8e 02 51 bd ab a7 85 3b 63 9b 10 3b b0 ba 4f bd
       -0.051027827 0.0040788255 0.0022065274 -0.05071515
000040 39 24 e0 3c 48 20 cb bb ed 12 08 bb 1a 2c 04 ba
       0.027361022 -0.0061989166 -0.0020763234 -0.0005041972
000050 01 63 02 3b 6a 2d 97 bb b0 81 25 bc 9c 77 0e 3c
       0.0019895437 -0.004613568 -0.010101721 0.008695509
000060 7c 6b 18 3c ad f0 46 bd 30 b5 ec bb 4c 5e 5a 3b
       0.00930297 -0.04856937 -0.0072237477 0.0033320365
000070 0e cb dd 3a 7c 41 6e 3a 07 e5 1a 3c d2 b6 a5 bb
       0.0016921477 0.00090887374 0.009454018 -0.0050571943
000080 27 da d6 3a d4 64 53 bd cd 01 9e bc 09 71 15 bb
       0.0016391919 -0.05160983 -0.019287968 -0.002280297
000090 1d 65 1a 3e 84 98 0f bd ba 8c 64 bd fa 97 ed ba
       0.15077634 -0.03505756 -0.05579827 -0.0018126958
0000a0 35 4d 97 bd 69 e9 58 3c ff 69 62 bd 41 c8 01 3c
       -0.07387773 0.013239243 -0.055276867 0.007921279
0000b0 02 56 f7 3c f8 64 0d 3c 92 82 8c 3b 2e 08 e1 3d
       0.030192379 0.00863003 0.004288026 0.10987888
0000c0 a6 81 d4 bc 97 7b 8c bd 5f d9 72 bb 74 72 87 bd
       -0.025940727 -0.068595104 -0.0037055833 -0.06613627
0000d0 c0 72 13 b9 57 3a 0a 3e 31 8c 6e bd c1 05 7b bd
       -0.0001406176 0.13498817 -0.058239166 -0.061284784
0000e0 68 10 57 bd bf 38 cc 3c df 19 83 bd 2e 58 70 bd
       -0.05250588 0.024929402 -0.06401419 -0.058677845
0000f0 ca f6 bc 3d b0 48 b4 39 be 8b 04 3b 78 58 80 bd
       0.09226759 0.00034386432 0.0020224894 -0.06266874
000100 c8 1c 4f 3a 45 e7 0b bb 47 2a 67 bb 06 25 8c bb
       0.0007900712 -0.0021347564 -0.0035273002 -0.0042768745
000110 46 ee 0c bc 36 60 8a 3b 5b 7d 29 bb 97 09 dd 3a
       -0.008601731 0.004222895 -0.0025862071 0.001686382
000120 d1 1c 79 3a 1f 18 ba bb 9f a9 07 3b d7 81 1f bc
       0.000950289 -0.005679145 0.0020700467 -0.009735546
000130 fe f4 43 3a d9 f3 23 bc 7d 77 79 3b 9a 0a 3c bc
       0.00074751663 -0.010006868 0.0038065605 -0.011477137
000140 02 03 c4 bb b4 58 8e bb dc 11 6c 3b e7 41 06 bc
       -0.005981804 -0.0043440703 0.0036021387 -0.008194423
000150 a4 a5 72 3a 5f 7a d4 bb a7 51 1c 3c fc f3 8f bb
       0.000925625 -0.0064843143 0.009540952 -0.004393099
000160 84 2d 09 b9 b6 83 3b bb fb d1 8b bb fa e0 08 3c
       -0.00013082294 -0.0028612441 -0.004266975 0.00835442
000170 49 27 ef 3b 58 51 d8 bb d7 7b 27 3a 9b 81 25 bc
       0.0072983843 -0.006601494 0.0006388998 -0.010101701
000180 d4 02 32 39 67 20 03 3d 04 71 ec bb 25 e2 cb 3b
       0.00016976456 0.032013323 -0.007215621 0.006222027
000190 2e 27 02 be 5a 51 d5 bc 22 27 87 3d 30 59 99 bb
       -0.12710258 -0.026039768 0.06599261 -0.0046798214
0001a0 0a 74 8f 3d c1 98 d8 3c 78 be 8d 3d 14 77 23 bb
       0.070045546 0.026440026 0.06921095 -0.0024942802
0001b0 27 11 b4 bd 7c a9 d2 39 1e 74 8c 3c c7 23 a1 bc
       -0.08792334 0.00040180597 0.017145213 -0.01967038
0001c0 f5 83 1d 3d 2e d3 88 3d 49 e7 02 bc 79 7d 8b 3d
       0.038455922 0.06680904 -0.007989713 0.068110414
0001d0 ea 30 a8 3c a9 8e d1 3d da 54 c3 3d b4 91 89 3d
       0.020531137 0.102322884 0.095376685 0.06717244
0001e0 a6 9b c4 3d 9a 65 a9 3c 4f 31 a0 3d f9 b9 9a 3d
       0.096 0.02067833 0.07821905 0.07555003
0001f0 31 b7 93 bd bb 88 a3 bb c1 66 da 3b 7e c8 e5 3d
       -0.07212675 -0.004990665 0.0066650813 0.112198815
000200 c6 42 52 3b cd 5b b2 3d 6b 67 9f 3d d4 f5 c0 3b
       0.0032083257 0.08708916 0.07783397 0.00588868
000210 82 51 63 3d b8 12 16 bc 99 b3 97 3d a0 12 0c b8
       0.055497654 -0.009159736 0.074073024 -3.3395947e-05
000220 43 36 9c 3d 72 f8 75 3b e2 82 9b 3d 35 84 6e ba
       0.07627537 0.0037532118 0.07593323 -0.000909868
000230 e2 6b 1f 3d b0 89 1d 3c 46 b5 15 3c 64 4b 27 3d
       0.038921244 0.009615347 0.009137457 0.040843382
000240 c7 33 58 3d 05 03 95 3d 0d 5c 11 3b 46 d0 aa 3d
       0.052783754 0.072759666 0.002218011 0.08340506
000250 d2 70 d9 b9 4a 5a 80 3d 4b 49 af 3d bc c6 a4 3d
       -0.00041473523 0.06267221 0.085589014 0.08045718
000260 bd 81 5f 3d 60 08 94 3d 7c 91 88 3d 69 e0 9c 3d
       0.054567087 0.0722816 0.06668374 0.0765999
000270 03 f7 64 3b 10 77 8d bb 7b ca 11 3c ee 40 a6 3d
       0.003493727 -0.004317172 0.008898373 0.08117853
000280 fc d9 2a bb 90 0e 05 3d 87 49 b7 3d 43 22 0f bc
       -0.002606987 0.03248459 0.08949571 -0.008736196
000290 c6 d6 b5 3d 56 2a d7 bc 70 a7 a2 bc e6 65 38 3a
       0.088788554 -0.026265305 -0.019855231 0.0007034227
0002a0 d0 81 4e bc fb 94 79 3d 5c a2 b6 bc 42 07 a0 bb
       -0.012604192 0.060933094 -0.022294216 -0.0048836777
0002b0 28 96 93 3d a3 f1 14 3b 4e cc a8 3b b0 7b a7 3d
       0.072063744 0.0022727035 0.005151308 0.081778884
0002c0 df 3b 41 3d 5d b2 cf bc 30 a5 cc bb 2a 51 b5 bc
       0.04717624 -0.025353605 -0.006245278 -0.022133429
0002d0 19 8d bf bb cf 0b 7f bc c3 22 9b bc 9a c1 3d bc
       -0.0058456776 -0.01556678 -0.018937474 -0.011581803
0002e0 7d a4 35 bb 6c 30 83 3d 8c 43 96 bc b0 db 29 bc
       -0.002771645 0.0640572 -0.018342756 -0.010367319
0002f0 0e 3d a5 3c 17 6e 6a ba d3 c8 4f bc 58 1e b7 bc
       0.020170715 -0.0008942796 -0.012682158 -0.022353336
000300 d9 a4 7e 3b ed 04 9f 3d be c6 23 3d 87 a1 3d 3c
       0.003885558 0.077646114 0.039984457 0.011574156
000310 42 8d af bc a7 dc 21 3d 3c 61 a0 3d 5a cb a9 bb
       -0.021429662 0.03951707 0.07831046 -0.005181712
000320 4d b5 9b 3d 81 83 7f ba 7e cd 8f 3d 47 b8 c7 3a
       0.0760294 -0.00097470736 0.070216164 0.0015237414
000330 27 8f cb bd d6 e6 cf ba 31 63 85 39 53 56 ae bd
       -0.099394135 -0.0015861641 0.0002544164 -0.08512559
000340 8a 26 c1 3d 1a dc 98 3d 40 5f e9 3a 09 19 87 3d
       0.09431179 0.07463856 0.0017804876 0.06596572
000350 a8 91 95 3b 26 df 72 ba 27 3a 27 3d d2 f2 94 3d
       0.0045644827 -0.0009264819 0.040826943 0.07272877
000360 b0 f5 6a 3d 22 43 b8 3c 57 8a 8b 3d 23 3e 80 3d
       0.057363212 0.022492949 0.068134956 0.06261852
000370 b4 a7 69 3d e6 96 ac 3b eb d4 f4 3b e5 a4 8e 3d
       0.0570447 0.005267012 0.007471671 0.06965045
000380 78 db b9 bb 78 1d f5 bd c8 91 5e bd 2d 82 16 3b
       -0.0056719147 -0.11968511 -0.054338247 0.0022965774
000390 82 87 c1 3d af 87 93 3d e2 2c 67 bd 3e d6 e1 3c
       0.09449674 0.07203614 -0.056439288 0.027567979
0003a0 0a 1b 71 bd 89 b8 d2 3d b1 4e 5d bd 1d b9 c6 bc
       -0.058863677 0.102891035 -0.054030124 -0.02425819
0003b0 19 f6 49 3e 4f 7a 88 bb 3f 39 e5 3b cb cb 31 bd
       0.19722785 -0.004164971 0.0069953497 -0.043407243
0003c0 e3 a9 3a 3e 2d 38 79 bd aa 18 1c ba 23 32 7d bd
       0.18228869 -0.06084459 -0.0005954603 -0.061815392
0003d0 04 de 22 3d 33 69 0f 3e 86 24 e8 bd 1e f3 61 bd
       0.03976251 0.14004974 -0.11335091 -0.055163495
0003e0 5a 08 22 3c 9a 69 6d 3a e7 82 51 bd 59 c8 5c bd
       0.0098896865 0.00090565684 -0.05115023 -0.053902004
0003f0 f4 f5 3f bd 0b 39 3a 3d bd 0e 3d bc 01 94 a9 bd
       -0.04686542 0.045464557 -0.011539158 -0.08280183

_module.model.6.bias f4 [16]
000000 1e ed 81 bb 29 72 11 3e 4e 6a 2b 3b 01 66 04 3e
       -0.003965034 0.14203705 0.0026155892 0.12929536
000010 8d be b1 3d b5 dc 8f bd 37 29 1c 3e bf fa fa 3d
       0.08678923 -0.070245184 0.15250097 0.12254857
000020 da 37 4c 3d 8b 95 70 bd bb a3 9e 3d 5d 71 29 3c
       0.04985795 -0.058736365 0.07746073 0.010341969
000030 80 72 8e 3d dd 36 83 3c 54 c9 94 3d d4 e8 1d 3d
       0.06955433 0.016017372 0.07264963 0.03855212

_module.model.8.weight f4 [8, 16]
000000 f5 d2 30 3d cc 04 f1 bd 8e a5 4c 39 c2 bc a6 3d
       0.043169934 -0.11768493 0.0001951663 0.081414714
000010 5d 31 40 bc 08 dc 23 3e 53 13 74 3d 36 1c 86 be
       -0.011730519 0.16001904 0.05958874 -0.26193398
000020 58 11 9d bb 1b d0 1b 3e 2a db af ba 5c 00 70 bc
       -0.0047933273 0.15216105 -0.0013416756 -0.014648523
000030 76 46 d2 3c 63 ac 7a 3d 2b 12 22 3d fd 5d 2a 3e
       0.025668364 0.061199557 0.039568108 0.16637416
000040 55 67 11 bc b0 06 7d bc 01 8e 87 bb 88 ac 3a bb
       -0.008874734 -0.015443489 -0.004136801 -0.0028484184
000050 da 0d 41 bd 82 be 45 bc a8 58 94 3c 60 5a 7b bc
       -0.04713235 -0.012069346 0.01810868 -0.015341371
000060 c8 7c 67 bc d4 86 86 bc 4a ac a3 bc 44 37 c8 3b
       -0.014128871 -0.016421713 -0.019979615 0.006110104
000070 1d 32 b1 bb 9a 43 0d bc 0a 4c b0 3c ca 3c 2a bb
       -0.0054075853 -0.0086220745 0.021520633 -0.0025976175
000080 e2 6e 2e bc c4 49 1c 3c 5f fd 52 3c ea 9f 7a ba
       -0.010646554 0.0095390715 0.012877791 -0.0009560572
000090 e3 97 9d 3a a8 88 79 3b 7b d7 81 bb 62 c1 e7 bc
       0.0012023415 0.0038075838 -0.003962455 -0.028290454
0000a0 18 bb 39 3a 6e 06 77 bc 99 46 71 3b 57 74 17 3c
       0.0007085069 -0.015077217 0.003681576 0.009244046
0000b0 f5 c2 e2 ba fe 27 8c bb bb bb 1d 3c 6c 37 c1 3b
       -0.0017300533 -0.0042772284 0.009627278 0.0058964994
0000c0 9a 41 a2 bc 34 08 7c be 4d be 12 3c d3 97 6c bd
       -0.019806672 -0.24612504 0.008956504 -0.05776198
0000d0 da e7 c0 bb c1 78 10 be 7c 3d 0a be ac 3f b7 bd
       -0.005887014 -0.14108564 -0.13500017 -0.08947691
0000e0 3c 0e 0d 3e f7 2e 41 be 13 9c 05 3d b3 49 a3 3d
       0.13774961 -0.18865572 0.032619547 0.079730414
0000f0 57 d1 86 bb b7 fc 92 be 6a 2b 22 be 6f 6b 67 be
       -0.0041143107 -0.2870843 -0.15836874 -0.22599576
000100 cc 50 e6 3d 17 9a 1b 3d d0 70 cc bc 48 cc cb 3d
       0.112458795 0.03798875 -0.024956137 0.09951073
000110 bb 95 c9 3a 82 db 25 bd 6b 2a 78 bd 40 09 6c be
       0.0015379706 -0.040492542 -0.060587328 -0.23050404
000120 0d 93 12 bd ce 38 24 bd 03 e1 b5 bd af 55 0a 3d
       -0.03578477 -0.040093236 -0.08880808 0.03377312
000130 38 4f aa 3c 41 f5 3b bd 5b 21 e4 bd d2 f8 1f be
       0.020789728 -0.04588819 -0.111391746 -0.15622261
000140 3f b5 ab bc 95 f7 27 bc c0 3f fb 3c 15 f2 06 3e
       -0.020960448 -0.010251899 0.030670047 0.13178284
000150 cc 55 cc 3d e6 6f c0 bd 99 62 0c 3e aa 98 2a be
       0.09977302 -0.09396343 0.13709487 -0.16659799
000160 0f 6a 85 bd aa da 53 be d0 1c 84 3d 6c 59 03 3d
       -0.0651437 -0.20688882 0.06450808 0.0320677
000170 3e 54 93 3d 9c 28 b9 bd 37 24 38 3e 0f 71 be bd
       0.07193802 -0.09040949 0.17982565 -0.09298908
000180 bc 02 31 3d cf 5a f2 39 52 97 22 bc a3 7a 80 bb
       0.0432155 0.00046225495 -0.009923773 -0.0039208694
000190 b8 f8 94 b9 a5 6f 46 3c e9 ec 21 3c 52 bc 1b bd
       -0.0002841407 0.012111579 0.009883144 -0.038021393
0001a0 7f 7a af bc 10 92 b6 bb 11 8c 12 bc b5 10 dd bb
       -0.021420715 -0.005571611 -0.008944527 -0.0067463764
0001b0 98 18 14 bd b0 f3 42 3d 48 71 8b 3b 46 bb 1b 3b
       -0.036156267 0.04759568 0.0042554475 0.0023762747
0001c0 d6 c8 ef b9 c0 0b 80 3c 2a ac 04 bd 1c 17 43 bd
       -0.00045735267 0.015630603 -0.03239075 -0.04762946
0001d0 c5 8d fd bc b4 ef ea 3a f2 90 9f bc 6a 1a 7c 3c
       -0.03095139 0.001792422 -0.019478295 0.015387157
0001e0 ba c5 e7 bb 80 4a 19 3c 75 5a b9 bc 8c 62 c0 3b
       -0.0070731314 0.009356141 -0.022626141 0.0058711227
0001f0 d2 35 3a bd a1 ba 4c 3d 9e fd c7 bc 28 b9 88 3c
       -0.045461483 0.04998267 -0.024412926 0.016689852

_module.model.8.bias f4 [8]
000000 a9 ea 12 be df dc 38 bc 1e aa 93 bc 78 b0 15 3e
       -0.14347328 -0.0112831285 -0.018025454 0.14618099
000010 23 f8 de 3b 27 55 60 3e c5 f1 1b bd 24 b5 d0 3b
       0.0068044825 0.21907483 -0.038072366 0.00636925

_module.model.10.weight f4 [2, 8]
000000 63 dd 5e bd 9e 69 2f 3e 5e 95 73 3e 07 5d 14 3c
       -0.05441035 0.17130134 0.23787448 0.009055383
000010 69 4a 8c be 01 0f fe bd 32 36 1e 3e fe 94 2d be
       -0.2740052 -0.124052055 0.15450361 -0.16951367
000020 6b be 9f be d8 0f 4e bd 38 22 f2 bd a8 72 9a 3d
       -0.31199965 -0.05030808 -0.11822933 0.075414
000030 00 47 64 3b 80 54 b1 3e 6b 30 6f be 0a b4 8c be
       0.0034832358 0.3463478 -0.23358314 -0.2748111

_module.model.10.bias f4 [2]
000000 2a 1d 07 3e 5a 98 44 3e
       0.13194719 0.19198743
