dp_results/best_dp_model_noise1.0.pth (torch, 30861 bytes, 12 tensors)

_module.model.0.weight f4 [64, 15]
0	0xbc8083df	-0.015687881
1	0xb7849970	-1.5807076e-05
2	0x3d54c426	0.051944874
3	0x3af531a0	0.0018706806
4	0xbac67c14	-0.0015143179
5	0xbd153b65	-0.036433596
6	0x3d0f4aec	0.03498356
7	0xbcc87681	-0.02447057
8	0x3bcf59b5	0.0063278326
9	0x3c7d1f91	0.015449421
10	0x3c9c5ad5	0.01908628
11	0x3c42c829	0.011888542
12	0x3be689e9	0.007035483
13	0xbc99515a	-0.01871555
14	0x3c36363f	0.011121332
15	0xbb37d244	-0.0028048912
16	0x3c514a39	0.012774044
17	0xbd9c1312	-0.07620825
18	0x3baf6427	0.0053525153
19	0xbb9cceb0	-0.0047853813
20	0x3c48061d	0.012208489
21	0x3c69c208	0.014267452
22	0xbbcf7615	-0.006331215
23	0x3c373f6c	0.011184555
24	0x3b746e12	0.0037297052
25	0x3d1dfe26	0.038572453
26	0xbca7b091	-0.020469936
27	0xbb382e40	-0.002810374
28	0xbbbd0ae5	-0.005769121
29	0xbd62bb59	-0.05535445
30	0xbbfcf4b4	-0.0077196006
31	0x3bc857b4	0.0061139707
32	0x3b6b5735	0.0035910134
33	0xbb10964a	-0.0022062236
34	0xbb4b75fd	-0.0031045668
35	0x3c31ee02	0.010859968
36	0x3c20b40c	0.0098085515
37	0x3a6a4e43	0.00089380535
38	0x3bc851ff	0.0061132903
39	0x3a35ac8c	0.00069303135
40	0xbb5098d7	-0.003182938
41	0xbcb9ad2b	-0.02266558
42	0xbc0c21eb	-0.008553009
43	0x3c88f161	0.016716661
44	0x3b9e0143	0.0048219278
45	0xbcd7a8a6	-0.026325535
46	0x3b454b71	0.003010478
47	0xbbbc4014	-0.0057449434
48	0x3bacfe84	0.005279364
49	0x3cdd7e41	0.027037742
50	0x3c8f09f2	0.017460797
51	0xbbb05924	-0.00538172
52	0x3c974042	0.018463258
53	0x3b8f6df7	0.0043771225
54	0x3a454230	0.00075248163
55	0x3af73650	0.0018860791
56	0x3baa81ec	0.005203476
57	0xbc8cd507	-0.017191423
58	0x3adceb32	0.0016854762
59	0xbc2babbf	-0.010477959
60	0x3c05dab2	0.008169817
61	0x3c901b2d	0.017591083
62	0xbc443cfe	-0.011977432
63	0xbb1c4295	-0.0023843397
64	0xbc1c28ba	-0.009531194
65	0xbd8118ad	-0.06303535
66	0x3b8de231	0.0043299426
67	0xbd5ee474	-0.05441709
68	0x3ca46cac	0.02007135
69	0x39623ab6	0.00021574911
70	0xbc6e8b93	-0.014559644
71	0xbba0e344	-0.0049099047
72	0x3c2c608a	0.010521064
73	0x3c619fdb	0.013771023
74	0xbc33baca	-0.010969827
75	0xbb55c847	-0.0032620595
76	0xbd2d257a	-0.04227207
77	0x3ab317e4	0.0013663736
78	0x3c67ba2d	0.014143509
79	0x3be3942b	0.006945153
80	0xbc93f423	-0.01806075
81	0x3c66fa3f	0.014097749
82	0x3b3504cf	0.0027621274
83	0x3d66120b	0.05616955
84	0x3c896286	0.016770612
85	0x3d1c391c	0.0381404
86	0x3c0c17fb	0.008550639
87	0xbc283d33	-0.010268497
88	0xbc391578	-0.011296622
89	0xbb925dfc	-0.00446677
90	0x3c510333	0.01275711
91	0xbbd1798c	-0.0063926633
92	0x3c706aca	0.014673898
93	0x3a57922b	0.000822338
94	0x3c696c49	0.014247009
95	0x3bbbdebc	0.005733339
96	0x3b05a813	0.002039437
97	0x3c2ace9d	0.010425237
98	0xbc3da8ea	-0.011575917
99	0xbc2f4a65	-0.010698889
100	0xbbfb04ca	-0.007660483
101	0x3b3c11e6	0.0028697192
102	0x3c044714	0.008073587
103	0xbc4d484c	-0.012529444
104	0x3cb57b42	0.0221535
105	0xbc2e0b4a	-0.010622809
106	0xbc162999	-0.009165191
107	0xbb4f5d4a	-0.0031641298
108	0x3c4de7ce	0.012567474
109	0xbbef8105	-0.0073090815
110	0x3cc1be52	0.023650322
111	0xbc84175c	-0.01612442
112	0x3c2cd23a	0.010548169
113	0xbc7603b0	-0.015015528
114	0xbb13d509	-0.0022557399
115	0xbb7b1603	-0.003831268
116	0x3c9df058	0.019279644
117	0x3a65296b	0.00087418285
118	0x3c849f3c	0.01618921
119	0xbb877337	-0.0041336077
120	0x3c22621d	0.009911087
121	0x3c25eb35	0.0101268785
122	0x3b08deb3	0.0020884692
123	0xbcd9e33d	-0.026597613
124	0x3aac77c8	0.0013158256
125	0xbbcb2322	-0.0061992565
126	0x3c59b312	0.013287323
127	0xbc04ff23	-0.00811747
128	0x3b9408e4	0.0045176614
129	0xb8bb2406	-8.923565e-05
130	0x3ca5d048	0.020240918
131	0xbd2cec79	-0.042217705
132	0x3aca6a89	0.0015443127
133	0xbbcedefe	-0.006313204
134	0xbbec30c3	-0.0072079613
135	0xbcd1a7df	-0.025592742
136	0x3cdef31a	0.02721553
137	0x3c889efe	0.016677376
138	0xbcbc9472	-0.023020003
139	0xbcb2a18e	-0.02180555
140	0x3cd83d1c	0.026396327
141	0xbd315318	-0.043292135
142	0xb9041db5	-0.00012599568
143	0x3cd7f0e9	0.026359992
144	0x3b26563e	0.0025380994
145	0x3b35f8d0	0.0027766712
146	0xbc1888f2	-0.009309994
147	0x3c8bc8ce	0.017063525
148	0xbc73370d	-0.014844668
149	0x3d0940b7	0.033508983
150	0x3b77d3df	0.0037815494
151	0xbcaa5771	-0.020793648
152	0xba948b72	-0.0011333062
153	0xbc18c86b	-0.009325127
154	0x3b03b01c	0.0020093983
155	0xbb38dd7a	-0.0028208182
156	0x3a273882	0.0006378965
157	0x3b1159ff	0.0022178886
158	0x3b5b6676	0.003347782
159	0xb9bc41b0	-0.00035907095
160	0xbc519c27	-0.012793577
161	0x3a97ec55	0.0011590818
162	0xbc09d0f3	-0.008411634
163	0x3d3b1df5	0.045682866
164	0xbbcc775c	-0.0062398147
165	0x3c44af19	0.012004637
166	0xbb32233e	-0.002718165
167	0xbd19df00	-0.037566185
168	0xbc5bd6ac	-0.013417881
169	0xbd69272b	-0.05692212
170	0x3bfac278	0.007652577
171	0x3bc4c669	0.0060050976
172	0xbc18107c	-0.009281274
173	0x3cf818d1	0.03028527
174	0x3c5fd981	0.013662697
175	0xbb874017	-0.004127513
176	0x3cbe6e05	0.02324582
177	0xbb0b4072	-0.002124813
178	0x3bd54142	0.0065080235
179	0x3b27516c	0.002553071
180	0xbc95a4d2	-0.018267069
181	0x3c987439	0.018610107
182	0xbd002f1c	-0.031294927
183	0x3c0dd4cb	0.008656691
184	0xbcc2a08d	-0.023758197
185	0xbc411d09	-0.011786708
186	0x3c226fea	0.009914378
187	0x3c0918d1	0.008367733
188	0x3be54e88	0.006997887
189	0xbca69864	-0.020336337
190	0xba272aa4	-0.00063768984
191	0x3d115e52	0.03549034
192	0x3bd30df5	0.006440873
193	0x3ba198c8	0.004931543
194	0xbc90aebf	-0.01766145
195	0x3bd337b2	0.0064458484
196	0x3bb57bc6	0.0055384366
197	0xbc5a8757	-0.013337932
198	0xbd24feb5	-0.04028197
199	0x3a9fad1d	0.0012182329
200	0x3baca7df	0.005269035
201	0xbb9fcfeb	-0.0048770807
202	0xbcbdac37	-0.023153407
203	0x3aba9a97	0.0014236745
204	0xbcad3b66	-0.021146487
205	0xbbbac9e8	-0.0057003386
206	0x3b7c8c09	0.0038535616
207	0x3c5be017	0.013420126
208	0x3c4b2b28	0.012400426
209	0x3bacd9fc	0.005275009
210	0x3bf7588d	0.007548398
211	0xbc81647a	-0.015794981
212	0x3c4048bc	0.011736091
213	0x3d1d33b9	0.038379405
214	0x3c4e1a6a	0.01257954
215	0x3b58bafa	0.003307043
216	0xb98bb7db	-0.0002664913
217	0xbc0fc9fb	-0.008776183
218	0x3b8f824b	0.004379546
219	0xba4847d4	-0.0007640098
220	0xbd499ae6	-0.04921999
221	0xbc166287	-0.009178764
222	0x3bcd252f	0.006260536
223	0x3b883656	0.004156868
224	0x3c792530	0.01520662
225	0x3c9822aa	0.018571217
226	0x3c58d133	0.013233471
227	0xbc05a214	-0.008156318
228	0x3c3ba920	0.011453897
229	0x3cdf1687	0.027232422
230	0xbb1ea0a8	-0.0024204645
231	0x3beef23d	0.0072920606
232	0xbc3a32ad	-0.011364621
233	0x3d2eafb5	0.042648036
234	0xbc31acb7	-0.010844401
235	0xbc812b4c	-0.015767716
236	0xbbc54c6c	-0.006021073
237	0xbc94eb01	-0.018178465
238	0xbb835c70	-0.004008822
239	0xbca0c482	-0.019624952
240	0x3c4649e1	0.012102575
241	0xb9c904e9	-0.00038341366
242	0xbc2c21d4	-0.010506112
243	0x3ac9d5cb	0.0015398798
244	0x3d8a4884	0.067521125
245	0xba69bc9f	-0.00089163514
246	0xbc2b3080	-0.010448575
247	0x3c374aea	0.0111872945
248	0xbac54fd8	-0.0015053703
249	0xbce56591	-0.028002532
250	0x3b8213ae	0.003969631
251	0xbaee3315	-0.0018173183
252	0x3a53f07f	0.0008084848
253	0x3d827e23	0.06371715
254	0x3ca1564b	0.019694468
255	0x3b9cf6ef	0.004790179

_module.model.0.bias f4 [64]
0	0xbc068030	-0.008209273
1	0x3d04bfe5	0.032409567
2	0xbc716d45	-0.014735525
3	0xbb1f926f	-0.0024348756
4	0x3ba13444	0.0049195606
5	0xbb91b007	-0.004446033
6	0xbbb811e7	-0.0056173685
7	0xbce9b58f	-0.028528957
8	0xbcf7496c	-0.030186377
9	0x3d143817	0.036186304
10	0x3d092f08	0.033492118
11	0x3badcf4c	0.0053042527
12	0xbc17f5b6	-0.009274891
13	0xbb2f7f87	-0.0026778893
14	0xba162a16	-0.0005728317
15	0xbd89d312	-0.067297116
16	0xbd05bbc1	-0.03264976
17	0x3d350757	0.044196453
18	0x3c65b80d	0.014020932
19	0xbd2a8ffc	-0.04164122
20	0xbc563ce1	-0.013076038
21	0xbd46add4	-0.04850562
22	0x3d80dc7d	0.06292055
23	0xbc09dc79	-0.008414381
24	0x3b53ba1d	0.0032306977
25	0xbb9364e3	-0.0044981106
26	0xbc075af4	-0.008261431
27	0x3ddb6ca6	0.107140824
28	0xbd828bf9	-0.06374354
29	0xbd521c6c	-0.051296636
30	0x3d5a8648	0.053350717
31	0xbb9c89e3	-0.0047771796
32	0xbc986ca5	-0.018606493
33	0x3c51d54c	0.012807202
34	0xbb10e6fb	-0.0022110331
35	0x3cc73fa1	0.024322333
36	0x3db06227	0.08612471
37	0x3dc0e01b	0.09417745
38	0x3c58e3be	0.013237892
39	0xbd08b723	-0.033377778
40	0x3d2f190e	0.042748503
41	0x3ba707d1	0.0050973673
42	0x3cfdd981	0.030987503
43	0x3ba5b77d	0.005057274
44	0xbc0c0053	-0.008544999
45	0xbcbb8118	-0.022888705
46	0xbd15effa	-0.036605813
47	0x3b84b4e8	0.004049886
48	0x3b9a9343	0.004717262
49	0xbb160f4b	-0.00228973
50	0xbd295656	-0.041342102
51	0x3cc0d6d0	0.02353993
52	0x3d1e4a03	0.0386448
53	0xbc8d4cbe	-0.017248508
54	0xb8a7bf86	-7.9988546e-05
55	0xbb06b712	-0.0020555896
56	0x3ccd2c32	0.025045488
57	0x3d9fbc1f	0.07799553
58	0xbb09022e	-0.002090584
59	0x3c7e7253	0.015530187
60	0xbcd29940	-0.02570784
61	0xbcd0a55d	-0.025469476
62	0xbc6e49a7	-0.014543927
63	0x3c106118	0.008812211

_module.model.2.weight f4 [48, 64]
0	0x3baaff13	0.0052183955
1	0xbb9d6256	-0.0048029823
2	0x3c08975d	0.008336869
3	0xbb86b182	-0.004110516
4	0x3b975d96	0.0046193106
5	0xbc2509c9	-0.010073134
6	0xbaee8032	-0.0018196164
7	0x3c7f722b	0.015591185
8	0xbbd2b808	-0.0064306296
9	0xbc9be211	-0.019028695
10	0x3bd32652	0.006443777
11	0x3c594d82	0.013263108
12	0x3b1651d7	0.0022936964
13	0xbb374c87	-0.0027969198
14	0x3a04ba4c	0.0005063161
15	0x3bfbf38e	0.007688946
16	0xba8139b0	-0.0009859111
17	0xbc6e986a	-0.0145627055
18	0x3cbefdd6	0.023314398
19	0x3bc15686	0.005900207
20	0xbb00346e	-0.00195625
21	0xb9e64970	-0.00043923734
22	0x3c171b76	0.009222856
23	0xbc90444c	-0.017610691
24	0x3aa3c25e	0.0012493839
25	0xbc89a81c	-0.016803794
26	0xbb9ada91	-0.004725762
27	0xbb0def7e	-0.002165764
28	0xbc9afd08	-0.018919483
29	0xbbb5c9cb	-0.0055477372
30	0xbc2b530e	-0.0104568135
31	0xbb77afb4	-0.0037793936
32	0x3c5b432d	0.013382715
33	0x3bcfe322	0.006344215
34	0xbb93cfe9	-0.004510869
35	0xbb8301b4	-0.0039980058
36	0x3b8feab3	0.004391992
37	0xbafd7895	-0.0019338304
38	0xbc2f5f6e	-0.010703905
39	0xbb98100e	-0.0046405857
40	0x3a0c22a5	0.00053457386
41	0x3a0fb2cf	0.00054816616
42	0x3b2976cc	0.0025858162
43	0x3c0cbabf	0.008589446
44	0x38f2bdd0	0.000115748146
45	0x3c9cfa99	0.019162463
46	0x38a5ef08	7.912336e-05
47	0x3baf7d77	0.0053555327
48	0x3c109aab	0.008825938
49	0x3c3ce380	0.01152885
50	0x3c235f53	0.0099714575
51	0x3b51a6fb	0.0031990397
52	0x3c83185b	0.016002825
53	0x3b30aa0b	0.0026956822
54	0x3ba0f25a	0.004911703
55	0xbb7616ce	-0.0037550214
56	0x3bdf99c9	0.0068237525
57	0xbc01b1c0	-0.007915914
58	0x3ac708cb	0.0015185116
59	0x3c26e729	0.010186949
60	0xbc068e92	-0.008212702
61	0xb9bd1ae0	-0.00036068913
62	0x3c59cfac	0.013294142
63	0xbc6f69c1	-0.014612616
64	0xbbb92dde	-0.0056512197
65	0x3b840e7d	0.0040300475
66	0xbb18a457	-0.0023291314
67	0x3c2fe55b	0.010735835
68	0xbc428f93	-0.011875051
69	0x3c0df3ee	0.008664114
70	0xbc72e280	-0.01482451
71	0xbb067d69	-0.0020521528
72	0x3b29f629	0.0025934076
73	0x3c8b6ec8	0.017020598
74	0x3cb05fa9	0.02152999
75	0x3b0763f6	0.0020658947
76	0xbc0f16f4	-0.0087335
77	0x3b756a0a	0.0037447237
78	0x3c2a900c	0.01041032
79	0x3bf11640	0.0073573887
80	0x3be15353	0.006876388
81	0xbc13f0e0	-0.009029597
82	0xba8ea578	-0.0010883054
83	0xbc5a223d	-0.013313827
84	0x3a50918f	0.000795626
85	0xbb980926	-0.0046397625
86	0xbc01ea13	-0.007929343
87	0xbb964a8a	-0.0045865225
88	0x3af59bb2	0.0018738417
89	0xbb672b50	-0.003527362
90	0x3c2bb634	0.010480452
91	0xbbd1f75a	-0.0064076604
92	0xbb977aed	-0.004622808
93	0xbb8255b7	-0.003977503
94	0xbc38938d	-0.011265648
95	0x39f50d84	0.0004674011
96	0xbbed9a26	-0.007251042
97	0xba3d01e6	-0.0007210061
98	0xbc61ccd9	-0.01378175
99	0x3b403d0f	0.0029333269
100	0xbc6c1127	-0.014408386
101	0x3ade9631	0.0016982016
102	0x3c752479	0.014962309
103	0x3c08fc2d	0.008360905
104	0xbbb4dc1d	-0.0055194036
105	0xbc78c082	-0.015182616
106	0x3c0ab4bd	0.008465943
107	0x3c0b7c01	0.008513452
108	0xbcba0d36	-0.022711378
109	0x3c7e66f1	0.015527473
110	0xbb47302d	-0.0030393705
111	0xbbd2f95d	-0.006438418
112	0xbb92ba78	-0.004477795
113	0xbc05442b	-0.008133928
114	0xbb1fc942	-0.0024381434
115	0xbc451de6	-0.012031054
116	0xbc125a0c	-0.008932602
117	0xbc42296d	-0.011850697
118	0xbc0e60f8	-0.008690111
119	0xb9b14445	-0.00033810936
120	0xb82cd3c8	-4.1205232e-05
121	0x3bca67a4	0.0061769057
122	0x3a64b442	0.000872437
123	0x3b942c48	0.0045218803
124	0xbabef033	-0.0014567435
125	0x3944355c	0.00018711895
126	0x3c1c15f7	0.009526721
127	0xbb902b0b	-0.0043996624
128	0xbd03b72a	-0.0321571
129	0x3d32fdcc	0.04369907
130	0x3aeb957d	0.0017973628
131	0xbc32df2d	-0.010917467
132	0x3d053e14	0.032529905
133	0x3ce25427	0.027628018
134	0x3c945d40	0.018110871
135	0xbb5405bb	-0.0032352048
136	0x3badcdbe	0.0053040674
137	0x3d22f25f	0.039781924
138	0x3c3e2907	0.011606461
139	0xbbba74e7	-0.0056902054
140	0x3d21a8f1	0.039467756
141	0x3c88642c	0.016649328
142	0x3d10afca	0.035323896
143	0xbbaa1ff2	-0.0051917965
144	0x3cb44c2c	0.022008978
145	0x3c95bc9f	0.018278418
146	0x3c7fdfb7	0.015617303
147	0x3b6d16d4	0.0036176937
148	0x3c2455b0	0.010030195
149	0x3c9ac079	0.018890606
150	0xbc469ac6	-0.012121862
151	0x3d039591	0.03212506
152	0x3b24e2ed	0.0025159672
153	0x3c35daea	0.011099556
154	0xbaaaad7d	-0.0013021674
155	0x3d48c00e	0.049011283
156	0xbc200ebd	-0.009769139
157	0xbabddfd1	-0.0014486258
158	0x3c7c2a37	0.015390924
159	0x3cc694ca	0.02424087
160	0xbcbc2b8e	-0.022969987
161	0x3d72110d	0.059098292
162	0xbc81d47f	-0.015848396
163	0x3b778dbf	0.0037773696
164	0x3d933003	0.07186892
165	0xbd0039c5	-0.031305093
166	0xbc158da1	-0.009128005
167	0x3c428e89	0.011874803
168	0x3d8f9cd7	0.07012337
169	0x3c7b9f80	0.015357852
170	0x3d101550	0.035176575
171	0x3c6b0ca5	0.014346276
172	0x3d83a531	0.06427992
173	0x3cedede5	0.029044101
174	0x3b8f228a	0.004368131
175	0x3d447299	0.04796085
176	0x3cb06b67	0.021535588
177	0x3d0ad83d	0.033897627
178	0x3b867f96	0.004104565
179	0x3c8be22c	0.01707562
180	0x3d33c490	0.04388863
181	0x3a68193d	0.00088538585
182	0x3d040400	0.032230377
183	0x3d864124	0.06555393
184	0x3d23fa2e	0.04003351
185	0x3b128c74	0.0022361549
186	0x3cd77d14	0.02630476
187	0x3aa09b95	0.0012253398
188	0xbc10df9f	-0.008842378
189	0x3ba68405	0.005081656
190	0x3ba47496	0.005018781
191	0xbc31e45f	-0.010857671
192	0x3a38bef2	0.0007047496
193	0xbb8d7bf9	-0.004317757
194	0xbc9da171	-0.01924202
195	0xbc7b3e31	-0.015334652
196	0x3c9883be	0.018617507
197	0x3c08dcf9	0.008353465
198	0x3c36b9d2	0.011152701
199	0x3c30317c	0.0107539855
200	0xbc8fb14d	-0.017540598
201	0xbc819698	-0.015818879
202	0x37b3306c	2.1361011e-05
203	0xba8422d5	-0.0010081182
204	0xbbf5daf5	-0.0075029084
205	0xbbd9178c	-0.0066251215
206	0xba37ccd5	-0.00070114183
207	0x3a4665c9	0.0007568268
208	0xbb0c9c16	-0.002145534
209	0xbbdc64f0	-0.0067259
210	0x3c485fb1	0.012229846
211	0xbc2f1106	-0.010685211
212	0x3b7afbe2	0.0038297107
213	0xbbcb210d	-0.0061990083
214	0xbb5eb2bd	-0.0033981048
215	0xbb3b202a	-0.0028553107
216	0x3b34db80	0.0027596653
217	0x3bfee204	0.007778408
218	0xbb47f5c5	-0.003051148
219	0xb985f18a	-0.00025547697
220	0xbbfa08b8	-0.007630434
221	0xbc2a3286	-0.010388022
222	0xbcd9ad66	-0.02657194
223	0xbb474f0c	-0.0030412106
224	0x3ba74f73	0.0051059066
225	0xbb4c0b39	-0.003113462
226	0x3b2fc312	0.0026819152
227	0x3b1efc86	0.0024259402
228	0xbaafba40	-0.0013406947
229	0xbc8bfc3d	-0.01708805
230	0x3bd3e1af	0.0064661126
231	0x3c1c4e9b	0.009540225
232	0xbbfa316c	-0.007635286
233	0x3afa248e	0.001908438
234	0xbc050c78	-0.008120649
235	0x3c3fa7d5	0.011697729
236	0x3b340de1	0.0027474093
237	0x3c2dc518	0.010606073
238	0x3c5088fc	0.012727972
239	0xbb1d1bfb	-0.0023972976
240	0xbbc93e36	-0.0061414493
241	0x3a6f9fe2	0.0009140951
242	0x3c07fe02	0.008300306
243	0x391637ea	0.00014325944
244	0xbbe2171c	-0.0068997275
245	0xbc7b2407	-0.015328414
246	0xbbbbd162	-0.0057317475
247	0x3b6e3ba6	0.0036351471
248	0x3bbf4c91	0.005837985
249	0xbabd6619	-0.0014449983
250	0x3c9f33d9	0.019433903
251	0x3bea1b23	0.007144348
252	0xba3a3e2a	-0.00071046
253	0xbbf5027c	-0.007477103
254	0x378c0cba	1.6695227e-05
255	0x3a5829ab	0.0008245955

_module.model.2.bias f4 [48]
0	0x3b924db2	0.0044648284
1	0x3c65d9aa	0.014028946
2	0x3da29f54	0.07940546
3	0xbc802301	-0.015641691
4	0x3ca8f885	0.020626316
5	0x3c8ee0ae	0.01744112
6	0xbb3f8b0d	-0.0029227168
7	0x3ba79060	0.0051136464
8	0xbc4edb53	-0.012625533
9	0xbc53b8b3	-0.012922454
10	0xbc890e85	-0.016730556
11	0xbc1230f7	-0.008922807
12	0xbc2bb9fb	-0.010481353
13	0xbcf53c8a	-0.029936094
14	0xb9b89504	-0.0003520624
15	0x3d434a9d	0.04767858
16	0x3d9aca38	0.075581014
17	0x3c146c98	0.009059094
18	0xbce31a9e	-0.027722653
19	0x3b21ccf7	0.002468882
20	0xbd160747	-0.036628034
21	0x3c859d38	0.01631032
22	0x3c26d777	0.010183207
23	0xbb2f1917	-0.0026717836
24	0x3d3804bb	0.044926386
25	0x3d58b28e	0.052904658
26	0x3c11324c	0.008862089
27	0xbc3599d8	-0.0110840425
28	0x3cdaa21e	0.026688632
29	0x3da829b7	0.082110815
30	0x3cdafd0d	0.026731992
31	0xbca219c9	-0.019787686
32	0x3b741190	0.0037241913
33	0x3d890e84	0.06692222
34	0x3de05153	0.10953011
35	0x3a3c4baf	0.00071829086
36	0xbc4df1a9	-0.012569823
37	0x3d147b3d	0.03625034
38	0x3c694cec	0.014239531
39	0xbbb6b2f1	-0.0055755307
40	0xbbbd7853	-0.005782166
41	0xbc93c8b8	-0.018040046
42	0x3ba9473f	0.005165964
43	0x3bb57f0d	0.0055388273
44	0x3d92c18e	0.07165824
45	0x3c690827	0.014223135
46	0x3c63ab35	0.013895799
47	0x3db4d96d	0.08830533

_module.model.4.weight f4 [32, 48]
0	0x3b443e63	0.0029944412
1	0xbc276a66	-0.010218238
2	0x3c4ec826	0.012620961
3	0x3b7728dd	0.0037713565
4	0x394176a4	0.00018450111
5	0xbc01830a	-0.007904777
6	0xbb0474f9	-0.0020211323
7	0xbb96568d	-0.0045879544
8	0x3c313eee	0.010818226
9	0xbbc9e86b	-0.0061617396
10	0x3c1613d6	0.009160003
11	0xbc6c663a	-0.01442867
12	0x3b60be6c	0.0034293188
13	0x3a0f83d9	0.0005474664
14	0xbbf12581	-0.007359207
15	0x3c41d877	0.011831394
16	0x3c964859	0.018345045
17	0x3badee56	0.005307953
18	0x3a7c5665	0.0009625911
19	0xbc12de43	-0.008964124
20	0xbb7261b1	-0.0036984498
21	0xbb9d93d1	-0.004808881
22	0xbc060e95	-0.008182188
23	0x3c33c06b	0.010971169
24	0xbbf07f30	-0.0073393807
25	0xbba4c47c	-0.0050283056
26	0xbcb7757e	-0.022394892
27	0xba08d530	-0.00052197557
28	0xb9a49ee5	-0.00031398903
29	0xbb396051	-0.0028286169
30	0xbc4b42b4	-0.01240604
31	0x396790ec	0.00022083864
32	0xba09e6bd	-0.0005260518
33	0x3b124fd4	0.0022325413
34	0xbc48e54d	-0.012261701
35	0xbb9f1f92	-0.0048560584
36	0x3b9d7e73	0.0048063337
37	0x3bfad9c0	0.0076553524
38	0xbc6783e0	-0.014130563
39	0x3c7e98d8	0.0155393705
40	0x3c0f4076	0.008743396
41	0xbc08c1c2	-0.008346977
42	0x3c94fb63	0.018186277
43	0x3c1ca247	0.009560174
44	0xbae0eba0	-0.0017160065
45	0x3c5f5b83	0.013632658
46	0xbc1d6d1c	-0.009608533
47	0x3a438600	0.0007458627
48	0xbb0cdf55	-0.002149542
49	0x3a80bc0d	0.0009821669
50	0x3c8ccdb4	0.01718793
51	0x3b007d8e	0.0019606086
52	0x3bb43c61	0.005500362
53	0x3ba1a122	0.0049325386
54	0xbc398d44	-0.011325184
55	0xbbaa9d6a	-0.0052067535
56	0x3bda77b6	0.0066671027
57	0xbb5cce57	-0.0033692324
58	0xbc5032da	-0.012707436
59	0xbc2fe9f7	-0.010736934
60	0x3b9a1359	0.0047020135
61	0xbbc2a704	-0.00594032
62	0x3b04fcac	0.0020292206
63	0x3bc43887	0.005988184
64	0x3c47912b	0.012180607
65	0xbbdb098d	-0.006684488
66	0x3b933bc5	0.004493209
67	0xbcb2760b	-0.021784803
68	0xbc05e177	-0.008171431
69	0xbb39cea9	-0.0028351939
70	0xbc8914b8	-0.016733512
71	0xbc6147b3	-0.013750005
72	0xbb5d234d	-0.0033742965
73	0x3cad0add	0.021123344
74	0xbb70a3ce	-0.003671873
75	0x3b44e5f8	0.0030044299
76	0xbbb494df	-0.005510911
77	0x3c541c48	0.012946196
78	0xb9dd01fc	-0.00042153883
79	0x3ba2d4df	0.004969224
80	0x3a2f7f68	0.0006694705
81	0x3b888a54	0.0041668806
82	0xbc559c18	-0.013037704
83	0x3b9f6002	0.00486374
84	0xbc2f53ae	-0.010701103
85	0xbc14f14c	-0.009090733
86	0x38fdc45a	0.000121005534
87	0x3d02e3bd	0.03195547
88	0x3b8681d1	0.004104831
89	0x3baeffc7	0.0053405496
90	0x3c9e2288	0.019303575
91	0xbc2745b2	-0.010209488
92	0xbc43ac54	-0.011942942
93	0x3bd8ac05	0.006612303
94	0xbd04855e	-0.03235375
95	0xbc1b62db	-0.009484018
96	0xbba8c30e	-0.0051502055
97	0x3b6662e1	0.0035154151
98	0x3cf230e9	0.029564338
99	0xba90cc3a	-0.0011047192
100	0xbc148d4a	-0.009066889
101	0x3ca61bd2	0.020276938
102	0xbb312885	-0.0027032208
103	0x3b9bf0cc	0.00475893
104	0x3b984519	0.004646909
105	0xbbafc4b9	-0.0053640273
106	0xbbe2fd1b	-0.006927145
107	0xbd135ece	-0.035979085
108	0xbbbf5626	-0.005839127
109	0xbc1af8cd	-0.009458733
110	0xbb9597cc	-0.0045652147
111	0xbb8cd6aa	-0.004298051
112	0xbd2a187f	-0.041527268
113	0x3c264788	0.01014889
114	0x3b00099c	0.0019536978
115	0xbc307748	-0.010770626
116	0x3cb60478	0.022218928
117	0xbca30a8f	-0.019902496
118	0xbc287b13	-0.010283249
119	0xbc9d7257	-0.01921956
120	0xbb9995c6	-0.004687044
121	0x3c85b4c0	0.01632154
122	0xbc95e2cc	-0.018296622
123	0x3c3a287a	0.011362189
124	0xbd8cea91	-0.068806775
125	0x3d360c3a	0.044445254
126	0x3c12b26a	0.00895367
127	0xbc5210d4	-0.012821395
128	0x3c13908b	0.00900663
129	0x3d6223c7	0.0552099
130	0xbbf280e5	-0.0074006193
131	0xbc4dc9cf	-0.012560322
132	0x3a68be83	0.0008878486
133	0x3b969137	0.0045949477
134	0x3b4d0dbc	0.0031288704
135	0x3c00cdea	0.007861594
136	0xbc845ea3	-0.016158408
137	0x3bdf36e0	0.0068119615
138	0xbbbf03f1	-0.0058293273
139	0xbbf1fb50	-0.007384695
140	0xbb2b174a	-0.002610641
141	0x3d30f20b	0.04319958
142	0xbcac247f	-0.021013496
143	0x3c9d4950	0.019199997
144	0xbbdb9fb5	-0.006702388
145	0x39ea4bfa	0.00044688565
146	0xbc62b680	-0.013837457
147	0x3b1a54d1	0.002354909
148	0x3bd5b458	0.006521743
149	0x3c1082ef	0.0088202795
150	0x3ba9c1b2	0.005180561
151	0xb90296a0	-0.00012453878
152	0xbcec1b4c	-0.02882161
153	0x3ca03de2	0.019560758
154	0xbc906f2e	-0.01763114
155	0xbc66a0cd	-0.014076424
156	0x3b8f860e	0.0043799942
157	0xbc13708f	-0.008999004
158	0x3bad1652	0.005282202
159	0x3bbf0f30	0.005830668
160	0x3aad893d	0.0013239753
161	0xbb933e78	-0.004493531
162	0x3b2296e1	0.002480917
163	0xb8eae64a	-0.00011200884
164	0xb98d77de	-0.00026982924
165	0xbc273706	-0.01020599
166	0x3b7a3aa1	0.0038181918
167	0x3b308702	0.002693594
168	0xbbef77ce	-0.007307983
169	0x37904414	1.7197839e-05
170	0xbc2c3b71	-0.010512219
171	0xbc26555d	-0.010152188
172	0xbcb9ac86	-0.022665273
173	0xba55c032	-0.00081539445
174	0x3c46fe57	0.0121456
175	0x3b9ec651	0.0048454185
176	0xbbcffd56	-0.0063473387
177	0xbc117745	-0.008878534
178	0x3c4729ab	0.0121559305
179	0xbb89ec33	-0.0042090653
180	0x3c6f82aa	0.014618555
181	0xbb930d87	-0.0044876966
182	0x3ba0735b	0.004896564
183	0xbb9aadef	-0.0047204415
184	0xbc0dd71e	-0.008657245
185	0xbc026ae6	-0.007960057
186	0xbca5abe7	-0.020223571
187	0xbc25c177	-0.010116926
188	0xbc325db5	-0.010886599
189	0x3b01695b	0.0019746635
190	0x3c153ac5	0.00910825
191	0xbc9c6495	-0.01909093
192	0x3ba07678	0.004896935
193	0xbcea282a	-0.028583605
194	0x3d957ae2	0.07298829
195	0xbc073af1	-0.008253799
196	0xbd004885	-0.03131916
197	0x3d1969d8	0.037454456
198	0x3c0c88f1	0.008577571
199	0x3cb3dae3	0.02195496
200	0xbd029939	-0.031884406
201	0x3b191e65	0.0023364064
202	0xbc8f3029	-0.01747902
203	0x3cd13f50	0.025542885
204	0x3ba78933	0.005112791
205	0x3c920cfd	0.017828459
206	0xbb6a6139	-0.0035763516
207	0xbb597cb8	-0.003318591
208	0x3d32ac3f	0.043621298
209	0x39b0d80a	0.00033730298
210	0xbc07d4fc	-0.0082905255
211	0x3b92d9c0	0.004481524
212	0x3c054d14	0.008136053
213	0x3b310a3c	0.0027014157
214	0xbb0befaa	-0.0021352568
215	0x3b855e8e	0.0040701097
216	0x3cdcf4ca	0.026972193
217	0x3be8b3ee	0.0071015274
218	0xbb98011f	-0.0046388055
219	0xb9a7cd04	-0.0003200547
220	0xbc93a202	-0.018021587
221	0x3d787334	0.06065674
222	0xbc4713a0	-0.012150675
223	0x3b01da50	0.0019813962
224	0x3d2a6a8c	0.041605517
225	0x3d28d830	0.041221797
226	0x3d1e7afd	0.03869151
227	0x3cbdfb74	0.023191191
228	0x3b47c0f2	0.0030479995
229	0xbc0ec4eb	-0.008713941
230	0x3dce1a2c	0.10063586
231	0xbc66b2fc	-0.014080759
232	0x3c9145a9	0.017733412
233	0xbb938369	-0.0045017493
234	0x3cdad89a	0.026714612
235	0x3c01d899	0.007925176
236	0x3dbce280	0.09222889
237	0x3bed538a	0.0072426246
238	0xbc1b6a25	-0.009485756
239	0x3d6d8435	0.05798741
240	0xbc47ce9a	-0.012195254
241	0x3aad0975	0.0013201671
242	0x3cb3c9ae	0.021946754
243	0xbc8f5531	-0.017496677
244	0xbc836d87	-0.016043438
245	0x3c024bbc	0.007952627
246	0xbc8369f1	-0.016041728
247	0x3b8913d7	0.0041832733
248	0x3bfe04fd	0.0077520595
249	0xbc130df3	-0.008975494
250	0x3bf6bee6	0.007530081
251	0x3c62ffee	0.013854964
252	0xbb2efeee	-0.0026702243
253	0x3c4e83b6	0.0126046445
254	0x3a08bba3	0.00052159483
255	0x3bd3eab6	0.0064671887

_module.model.4.bias f4 [32]
0	0x3bce0acc	0.006287908
1	0x3d9ee3ff	0.077583306
2	0x3d5eba8f	0.054377135
3	0x3c32347d	0.010876772
4	0x3e1c634d	0.15272255
5	0xbd55d51c	-0.05220519
6	0x3c3fcdc8	0.011706777
7	0xbcb9020f	-0.02258399
8	0x3c6fba04	0.014631752
9	0xbc385132	-0.011249827
10	0xbab6f89a	-0.0013959587
11	0xbdcd3954	-0.100207
12	0x3d87ee51	0.06637252
13	0xbcc0d54a	-0.023539204
14	0xbc79980d	-0.015234006
15	0x3d914c29	0.070946045
16	0x3deab87b	0.11460968
17	0xbb8eb7db	-0.0043554134
18	0xbda1f380	-0.07907772
19	0x3c1215af	0.008916303
20	0xbdab5a6e	-0.083668575
21	0x3e16a3c5	0.1471091
22	0x3dbb49be	0.091449246
23	0x3ba0d817	0.0049085724
24	0x3c90ccf3	0.017675852
25	0x3ded2bbb	0.115806065
26	0x3be75292	0.0070594037
27	0x3c55866b	0.013032536
28	0xbcbe2a05	-0.023213396
29	0xbd90032a	-0.070318535
30	0x38a422d2	7.826615e-05
31	0x3d568f6d	0.052382875

_module.model.6.weight f4 [16, 32]
0	0xbc8ab53a	-0.016932119
1	0xbbe726b6	-0.0070541753
2	0xbca36c22	-0.019949023
3	0x3c75923c	0.014988478
4	0xbd3180ab	-0.043335598
5	0x3ca6bb9d	0.020353133
6	0xbc6dd5b9	-0.0145162875
7	0x3b084f8f	0.0020799374
8	0x3c0d3a34	0.008619834
9	0xbbc4105d	-0.005983396
10	0xbc2eb481	-0.010663153
11	0x3bd4fb5a	0.00649969
12	0xbd55d22d	-0.052202392
13	0x3c115403	0.008870128
14	0x3bea8ce3	0.0071579083
15	0xbd5e56a7	-0.054281857
16	0x3c9a1362	0.01880807
17	0xbb70ea25	-0.0036760655
18	0xbbd43b95	-0.0064768293
19	0xbc25dc96	-0.010123393
20	0x3a9b82f8	0.0011864593
21	0xbbbe844d	-0.0058141113
22	0xb94128fa	-0.00018421179
23	0x3bd2283f	0.006413489
24	0x3cc0dbd0	0.023542315
25	0xbd493afa	-0.04912851
26	0xbc21f887	-0.009885914
27	0x3c1fad95	0.009745975
28	0x3c5bbc35	0.013411571
29	0xbbb0bcea	-0.005393614
30	0x3b889c32	0.0041690106
31	0xba6db368	-0.0009067566
32	0x3be20f92	0.006898829
33	0xbc136f5d	-0.008998719
34	0x3d313011	0.04325873
35	0xbc7b65b9	-0.015344077
36	0x3e2e213b	0.17004864
37	0xbcde9c80	-0.027174234
38	0xbc267817	-0.010160468
39	0x393dfe96	0.00018119285
40	0xbcab6403	-0.020921713
41	0x3c293709	0.010328063
42	0x3c0df702	0.008664848
43	0x3c9774e3	0.018488353
44	0x3d3a9a58	0.04555735
45	0x3cb5a89e	0.02217513
46	0x3cda2e71	0.026633473
47	0x3e08a0aa	0.13342538
48	0x3be01609	0.0068385643
49	0x39897691	0.00026219015
50	0xbbc63d0c	-0.006049758
51	0x3b8b2ac1	0.00424704
52	0xbbb2d014	-0.0054569338
53	0x3e2c0294	0.16797858
54	0x3c191aa8	0.009344734
55	0x3b88a56d	0.004170111
56	0xbc337e29	-0.010955372
57	0x3d99a59b	0.0750229
58	0xbb7bd2eb	-0.0038425277
59	0x3c3c3c47	0.011488981
60	0x3dbfb6a7	0.0936101
61	0x3bcb592a	0.0062056975
62	0xbb10b790	-0.0022082068
63	0x3b3a9307	0.0028468983
64	0x3af25523	0.0018488507
65	0x3a625347	0.0008633625
66	0xbbad6205	-0.005291226
67	0xbae9626a	-0.0017805819
68	0xbc9d3a10	-0.019192725
69	0x3c721675	0.014775862
70	0xbc6448c5	-0.013933365
71	0x3abbca8a	0.0014327329
72	0x3c5419c0	0.012945592
73	0xba2468ea	-0.0006271737
74	0xbb7ef73a	-0.0038904683
75	0xbc73bf6d	-0.014877182
76	0xbb513202	-0.0031920676
77	0xbc022639	-0.007943683
78	0xbb787828	-0.0037913416
79	0xbc460a6f	-0.0120874485
80	0xbc20624c	-0.009789061
81	0xbb9027e1	-0.004399285
82	0xbb6a951d	-0.0035794445
83	0xbc150a7a	-0.009096736
84	0xbb4e740f	-0.0031502282
85	0x3c2882d5	0.010285099
86	0x3c100452	0.008790093
87	0x3be473ff	0.0069718356
88	0xbc2bd650	-0.010488108
89	0xbc41bb3b	-0.011824424
90	0xb71df4fe	-9.414971e-06
91	0x3bd6a7df	0.0065507735
92	0x3a3404d4	0.00068671745
93	0x3bd360de	0.0064507565
94	0x3c003875	0.00782596
95	0xbc06708b	-0.008205543
96	0xbb014731	-0.0019726271
97	0xbd509776	-0.050925694
98	0xbdaa22fb	-0.08307453
99	0x3bd4adec	0.0064904597
100	0xbe1c57b1	-0.15267827
101	0xbcff516b	-0.031166753
102	0xbc8e457b	-0.017367115
103	0xbc2cf3cc	-0.010556173
104	0xbbdb1fe7	-0.0066871527
105	0x3cbc7a5b	0.023007562
106	0xbc69adaa	-0.014262596
107	0x3b44790f	0.0029979383
108	0xbdce95b3	-0.100871466
109	0xbbc11055	-0.0058918395
110	0x3c8f013f	0.017456649
111	0xbd652c58	-0.055950493
112	0x3be3647a	0.006939468
113	0xbc1597b8	-0.009130411
114	0xbc1fc209	-0.009750851
115	0x3a1f8778	0.0006085555
116	0x3c9387f9	0.018009173
117	0x3da60ffb	0.08108517
118	0x3cf1c3b5	0.029512266
119	0xbcd30d19	-0.025763081
120	0x3d225471	0.03963131
121	0xbd3fa45f	-0.046787616
122	0xbbc34228	-0.005958814
123	0xbb0e8282	-0.002174527
124	0xbd7ccb6c	-0.061717436
125	0xbaa201cc	-0.0012360155
126	0x3a72c0fc	0.00092603243
127	0x3d5035a3	0.050832402
128	0xbb0ba860	-0.0021310076
129	0x3c8bafcd	0.017051602
130	0x3b990813	0.004670152
131	0xbc6de679	-0.014520281
132	0x3c49848a	0.012299666
133	0xbc426d04	-0.011866812
134	0xbc4622be	-0.012093244
135	0x3b4c2e28	0.003115544
136	0xbc06ba03	-0.00822306
137	0x3c1d4ba9	0.009600558
138	0x3c24107c	0.010013696
139	0xbc9c7bdd	-0.019102031
140	0x3cb61f13	0.022231614
141	0x3c16704b	0.009182046
142	0xb9eb6ac2	-0.00044902234
143	0x3c8f85a8	0.017519787
144	0x3c33ca09	0.010973462
145	0x3b987053	0.004652062
146	0xb9e49b8a	-0.00043603434
147	0x3b979888	0.0046263374
148	0x3c09ed82	0.008418443
149	0x3ccff8ce	0.025387194
150	0x3c4a3329	0.012341299
151	0x3aa8158c	0.0012823804
152	0x3bd27bd5	0.0064234533
153	0x3c5a3089	0.013317236
154	0xbc7ae464	-0.015313242
155	0xbbcf9244	-0.006334575
156	0x3b2327f1	0.0024895633
157	0x3b15fc2c	0.0022885902
158	0x3bc47aee	0.0059960997
159	0xbbd58f58	-0.006517332
160	0xbb2c26b5	-0.0026268188
161	0x3d4b6baa	0.049663223
162	0x3ddc3c97	0.10753744
163	0xbb05a24f	-0.0020390933
164	0x3dafdfb1	0.085875876
165	0xbcbcb9c9	-0.023037808
166	0xbbfd6a95	-0.007733653
167	0x3b903b85	0.0044016265
168	0x3c1f12aa	0.00970904
169	0x3d67b7eb	0.056571882
170	0xbc48d85c	-0.012258615
171	0xbc03cb56	-0.0080440845
172	0x3db88be2	0.090110555
173	0xbc5222b8	-0.01282566
174	0x3bee9604	0.007281067
175	0x3dc33e03	0.09533312
176	0x3d720552	0.059087105
177	0xbc42051e	-0.01184204
178	0xbc7accf3	-0.015307653
179	0xbc625295	-0.013813634
180	0xbc0f2765	-0.00873742
181	0x3aa8e5f1	0.0012885911
182	0xbc190dd1	-0.009341673
183	0xbb02d78d	-0.0019964904
184	0x3c683bad	0.014174384
185	0x3d7c0611	0.061529223
186	0xbc2cfbdf	-0.010558098
187	0xbc4fe269	-0.012688258
188	0x3d114a8e	0.03547149
189	0x3c087846	0.008329457
190	0xbb242590	-0.0025046803
191	0xbc960860	-0.01831454
192	0xba9ee0ca	-0.0012121436
193	0x3be456b9	0.006968346
194	0xbcff73a4	-0.031183071
195	0x3c08667c	0.008325215
196	0xbd64de58	-0.055876106
197	0x3d2a7f1c	0.041625127
198	0x3c80d661	0.015727224
199	0x3b3412b7	0.0027476975
200	0xbb74fd2d	-0.003738235
201	0xbaf67577	-0.0018803318
202	0xbc0a8317	-0.008454106
203	0x3c7ca0ca	0.0154191945
204	0xbded80dd	-0.11596844
205	0x3c2f9990	0.0107177645
206	0xbc9b9538	-0.018992051
207	0xbde64eee	-0.112455234
208	0x3d8b0378	0.06787771
209	0xbbcf2d1e	-0.006322517
210	0xba49e088	-0.0007700999
211	0xbba44bec	-0.0050139334
212	0xb89b579c	-7.4072945e-05
213	0xbd2d5e7a	-0.042326428
214	0xbd0130b0	-0.031540573
215	0x3a0a49f2	0.0005275301
216	0x3bcc5b7c	0.0062364917
217	0xbd4b32a7	-0.049608853
218	0xbc4dbd84	-0.012557391
219	0xbcadb358	-0.021203682
220	0x3d66fd43	0.056393873
221	0x3c87f465	0.016596029
222	0x3c5c43bf	0.013443886
223	0xbb4442b1	-0.0029946978
224	0xb8852f42	-6.350737e-05
225	0xbd974e7c	-0.073880166
226	0xbc731c36	-0.014838269
227	0xbba9e8f1	-0.0051852395
228	0x3e0d5c11	0.13804652
229	0x3d9c4ff8	0.0763244
230	0x3bb5f51f	0.0055529024
231	0x3d1d6571	0.03842682
232	0x3a50300e	0.0007941731
233	0x3ddce482	0.10785772
234	0x3b89d639	0.0042064455
235	0xbd021c34	-0.031765178
236	0x3e566645	0.2093745
237	0xbbae8185	-0.0053254985
238	0x3b894593	0.004189202
239	0xbc7d6eed	-0.015468341
240	0x3e611f87	0.21984683
241	0xbc43c92e	-0.01194982
242	0x3a18d68e	0.0005830311
243	0x3b97a4f2	0.0046278173
244	0x3d4660f3	0.0484323
245	0x3e2a45fd	0.16628261
246	0xbd6af7e1	-0.057365302
247	0xba79a1d4	-0.00095227105
248	0x3d42b260	0.047533393
249	0x3d178079	0.036987755
250	0x3b0f4c09	0.002186539
251	0x3c98e2ce	0.018662836
252	0xbd38661e	-0.04501926
253	0x3d4c53ff	0.049884792
254	0xbc0c5378	-0.008564822
255	0xbcda0503	-0.026613718

_module.model.6.bias f4 [16]
0	0xbb324b8a	-0.002720567
1	0x3e30a4a8	0.17250311
2	0xbbda43a9	-0.0066608978
3	0x3d9715c7	0.073772006
4	0x3d03ac74	0.032146886
5	0xbd8f99b0	-0.070117354
6	0x3dd6e47d	0.104927994
7	0x3e0a16c0	0.13485241
8	0x3d7b17e1	0.06130207
9	0xbd8430cf	-0.06454622
10	0x3d449325	0.04799189
11	0x3c74c2d8	0.0149390325
12	0x3ac5697b	0.0015061343
13	0x3ca81a1d	0.020520264
14	0x3cf2928f	0.0296109
15	0x3d6405dd	0.055669654

_module.model.8.weight f4 [8, 16]
0	0x3d0bcab1	0.03412885
1	0xbde39330	-0.11112058
2	0x3c3666cc	0.011132907
3	0x3db23f43	0.087034725
4	0xbbcce8a9	-0.006253321
5	0x3e2a20d1	0.16614081
6	0x3d953c5d	0.07286904
7	0xbe86936e	-0.26284355
8	0x3ade25a5	0.0016948475
9	0x3e2b9c0d	0.16758747
10	0xbb7ff284	-0.0039054463
11	0xbc355047	-0.011066503
12	0x3cbea139	0.023270236
13	0x3d898fdc	0.06716892
14	0x3d8fdf1b	0.07024976
15	0x3e1aceb8	0.1511792
16	0xbbf8d254	-0.0075934324
17	0xbc715858	-0.014730535
18	0xbc9c6932	-0.01909313
19	0xbb97000f	-0.0046081613
20	0xbd4d108d	-0.050064612
21	0xbcac93c8	-0.021066561
22	0x3cd635fa	0.026148785
23	0xbc9c4d3e	-0.0190798
24	0xbc93d892	-0.018047605
25	0xbc390fc1	-0.01129526
26	0xbce4f468	-0.027948573
27	0xbbc5a627	-0.00603177
28	0xbc2b467d	-0.010453817
29	0xbc29626a	-0.010338405
30	0x3cbc5c6a	0.022993285
31	0xba051c7e	-0.0005077793
32	0xbbcd60e5	-0.0062676542
33	0x3cc93860	0.024563015
34	0xbc0c9544	-0.00858051
35	0xbbcdfd84	-0.006286325
36	0x3b4627af	0.0030236056
37	0x3c2a03cf	0.010376885
38	0xbc09ce7e	-0.008411048
39	0xbccbc014	-0.024871863
40	0x3ac360d5	0.0014906178
41	0xbc8ddbf5	-0.017316798
42	0xbc2e4d03	-0.010638478
43	0x3d014109	0.031556163
44	0x3c8a9320	0.016915858
45	0xbb89be7f	-0.004203617
46	0x3c78ea7f	0.015192627
47	0x3c6adb0b	0.0143344505
48	0xbc376920	-0.011194497
49	0xbe5daeb3	-0.21648674
50	0x3c88fa4f	0.016720919
51	0xbd417a20	-0.047235608
52	0x3c2d21dd	0.010567156
53	0xbdfe550f	-0.124185674
54	0xbe031c31	-0.12803723
55	0xbd793cb4	-0.060848907
56	0x3e248d3f	0.16069506
57	0xbe38702e	-0.18011543
58	0x3d04a04f	0.032379445
59	0x3dae998b	0.0852538
60	0x3b4ef400	0.003157854
61	0xbe887d90	-0.26658297
62	0xbe0a84cc	-0.1352722
63	0xbe4ebc3b	-0.20188992
64	0x3dfa8db6	0.122340605
65	0x3d273969	0.040826235
66	0xbcb70b1a	-0.02234416
67	0x3dd7c299	0.105351634
68	0x3c148b5c	0.009066429
69	0xbd024709	-0.031806026
70	0xbd6cdd5d	-0.057828296
71	0xbe72b8be	-0.23703286
72	0xbd3671a0	-0.044541955
73	0xbd306c65	-0.043072123
74	0xbdb04280	-0.08606434
75	0x3d29d0ce	0.041458897
76	0x3c8669db	0.016407898
77	0xbd50307e	-0.050827496
78	0xbdebe3c1	-0.1151805
79	0xbe1d9492	-0.15388706
80	0xbc03386a	-0.008009056
81	0xbc4e2127	-0.012581146
82	0x3d1164ba	0.03549645
83	0x3d8758a6	0.06608705
84	0x3d10428f	0.035219725
85	0xbddac200	-0.10681534
86	0x3d9f407c	0.07775971
87	0xbe25f46f	-0.16206525
88	0xbda8d255	-0.08243243
89	0xbe63618f	-0.22205184
90	0x3bbdf17e	0.0057966104
91	0x3d0d48e6	0.03449335
92	0xbb3f27e1	-0.0029168057
93	0xbdc2b8fb	-0.095079385
94	0x3dc5e9c6	0.09663729
95	0xbdce33ca	-0.10068472
96	0x3cc8cc04	0.024511345
97	0xba2c2e39	-0.0006568167
98	0xbc033d18	-0.008010171
99	0xbbd6c9b1	-0.006554805
100	0x38b7a1d8	8.756266e-05
101	0x3bb9f3ee	0.0056748306
102	0x3a158747	0.0005704057
103	0xbd044544	-0.03229262
104	0xbc5e6ee9	-0.013576248
105	0xbc8ebeae	-0.017424908
106	0xbc000182	-0.0078128595
107	0xbc6fbffe	-0.014633177
108	0xbd097641	-0.03356004
109	0x3d5e7dde	0.054319255
110	0xbb34b2e1	-0.002757244
111	0xbb932fb0	-0.004491769
112	0xbbae3d0b	-0.0053173355
113	0x3d110910	0.035409033
114	0xbcd95d1e	-0.02653366
115	0xbbb0df74	-0.0053977314
116	0xba64a3cc	-0.00087219174
117	0x3c9fded7	0.019515438
118	0x3c86cc02	0.0164547
119	0x3d2560fa	0.040375687
120	0x3cdbddf4	0.026839234
121	0x3cbc04ff	0.022951601
122	0x3c0a2917	0.008432648
123	0x3bfc7228	0.007704038
124	0xbbab311e	-0.005224361
125	0x3d7a3e3c	0.061094508
126	0x3c4843e8	0.012223221
127	0x3d562236	0.05227872

_module.model.8.bias f4 [8]
0	0xbe0e7135	-0.13910373
1	0xbb794dc6	-0.0038040741
2	0xbc85a3fd	-0.016313547
3	0x3e0f7ed6	0.14013228
4	0x3c97486d	0.018467152
5	0x3e5cdd5a	0.21568814
6	0xbd2d43cb	-0.04230098
7	0x3b32d208	0.0027285833

_module.model.10.weight f4 [2, 8]
0	0xbd61a676	-0.05509039
1	0x3e32e234	0.17469102
2	0x3e680eb4	0.22661859
3	0x3d9b094f	0.07570135
4	0xbe8c2870	-0.273746
5	0xbdcaee50	-0.09908736
6	0x3e28d47d	0.16487308
7	0xbe2ef745	-0.17086513
8	0xbe9e782e	-0.30951065
9	0xbd30531d	-0.043048013
10	0xbdf1d36a	-0.11807902
11	0x3bfd090f	0.007722027
12	0xbb1d5320	-0.0024005845
13	0x3e9fcda7	0.31211588
14	0xbe6b4ed5	-0.22979291
15	0xbe94b500	-0.29044342

_module.model.10.bias f4 [2]
0	0x3e082a64	0.1329742
1	0x3e43fca2	0.1913934
