dp_results/best_dp_model_noise0.8.pth (torch, 30861 bytes, 12 tensors)

_module.model.0.weight f4 [64, 15]
-0.015694536 -1.9599305e-05 0.0519309 0.0018809931 -0.0015074704 -0.036415562 0.03497657 -0.024472449
0.0063023334 0.015438465 0.019068863 0.011872372 0.007027538 -0.018705532 0.011105389 -0.0028250904
0.012740028 -0.07615635 0.0053371727 -0.0047795926 0.012166697 0.014260296 -0.0063368394 0.011106195
0.003696424 0.03850482 -0.020514729 -0.0027856105 -0.0058071534 -0.055365786 -0.007718206 0.00611557
0.0035818082 -0.002222696 -0.0031259793 0.010826985 0.009804056 0.0008942776 0.0061003724 0.0006671882
-0.003203174 -0.022645084 -0.008521646 0.01668037 0.0047965595 -0.026316553 0.0030089018 -0.005744146
0.0052741286 0.027033595 0.017452871 -0.0053811376 0.018461376 0.0043744505 0.0007513551 0.0018868862
0.0052009737 -0.01719057 0.0016796247 -0.01047494 0.008139588 0.01757625 -0.011982589 -0.0023778058
-0.00953793 -0.063013986 0.004326583 -0.05441339 0.020019349 0.00017322086 -0.014611465 -0.0049424493
0.010518199 0.013767419 -0.011012169 -0.0032671897 -0.042261135 0.0013645822 0.014160235 0.006956969
-0.018061837 0.014091635 0.0027600212 0.05612133 0.016745092 0.03811067 0.008540275 -0.010263242
-0.011296261 -0.0044797757 0.012752008 -0.0063928426 0.014649136 0.00081865134 0.0142342 0.0057300716
0.002042902 0.010388529 -0.011594488 -0.010709453 -0.0076772836 0.0028509803 0.008037195 -0.01253109
0.022105733 -0.010630304 -0.009166137 -0.0031677585 0.012576741 -0.0073065767 0.023663718 -0.016127087
0.010551217 -0.015012611 -0.0022515284 -0.0038332837 0.019285606 0.00087189313 0.016195763 -0.0041373153
0.009912238 0.01012657 0.0020890809 -0.02659752 0.0013158369 -0.006198674 0.013287671 -0.008118447
0.0045192563 -8.790355e-05 0.02024307 -0.042218078 0.0015427544 -0.006311564 -0.0072055464 -0.02561294
0.027195593 0.016669065 -0.02298394 -0.021766882 0.02634817 -0.043274548 -0.00015843599 0.026255555
0.002483199 0.002691396 -0.009363072 0.017081007 -0.014862503 0.033455882 0.0037759189 -0.020785607
-0.0011452704 -0.009351727 0.0019696958 -0.0028844792 0.0006295892 0.002216041 0.0032907173 -0.00044988742
-0.012878243 0.001133466 -0.008377493 0.04552106 -0.006279989 0.011999733 -0.002719884 -0.03756335
-0.013412387 -0.05691428 0.0076481584 0.006003621 -0.009284903 0.030270899 0.0136527475 -0.0041426187
0.023237582 -0.0021198702 0.0065074237 0.002546549 -0.018283295 0.018564949 -0.0312556 0.008629406
-0.023746723 -0.011828257 0.009882168 0.008341209 0.0068933805 -0.020381553 -0.0006994936 0.035416096
0.0064449576 0.0049102404 -0.017679019 0.0064425603 0.0055372547 -0.013339426 -0.040278137 0.0012195095
0.0052685714 -0.0048764213 -0.023153609 0.0014155734 -0.021150595 -0.005710229 0.003850408 0.013421367
0.012398664 0.0052702413 0.007566377 -0.015789347 0.011727405 0.038354296 0.012555844 0.0032763593
-0.00027514415 -0.0087887 0.0043690787 -0.00077048485 -0.04920719 -0.009179059 0.0062527247 0.0041309814
0.015203482 0.018571528 0.013234494 -0.008157748 0.011456006 0.027233297 -0.0024184634 0.0072915354
-0.011366036 0.042650074 -0.010844615 -0.015767492 -0.006020632 -0.018181434 -0.0040080943 -0.01962632
0.012111425 -0.00038749006 -0.010507174 0.0015261901 0.06749424 -0.00090095657 -0.010443698 0.011190125
-0.0015070264 -0.028002778 0.003967057 -0.0018233776 0.00080348377 0.06369258 0.01969448 0.0047916477
00000000: d491 80bc 3069 a4b7 7fb5 543d a88b f63a
00000010: 5096 c5ba 7c28 15bd 9843 0f3d 727a c8bc
00000020: ce83 ce3b 9ef1 7c3c 4e36 9c3c 5684 423c
00000030: 4347 e63b 583c 99bc 61f3 353c 2725 39bb
00000040: 8dbb 503c dcf7 9bbd 73e3 ae3b 219e 9cbb
00000050: d356 473c 04a4 693c 43a5 cfbb c2f6 353c
00000060: b43f 723b 3bb7 1d3d 810e a8bc ca8e 36bb
00000070: ef49 bebb 3cc7 62bd 01e9 fcbb 1f65 c83b
00000080: c5bc 6a3b a7aa 11bb 3bdd 4cbb ab63 313c
00000090: 31a1 203c f46d 6a3a a2e5 c73b 3ee6 2e3a
000000a0: 58ec 51bb 2f82 b9bc 609e 0bbc 45a5 883c
000000b0: 752c 9d3b d095 d7bc ff30 453b 6439 bcbb
000000c0: 99d2 ac3b 8f75 dd3c 53f9 8e3c 4154 b0bb
000000d0: 503c 973c 8d57 8f3b 96f6 443a 6551 f73a
000000e0: ee6c aa3b 3dd3 8cbc da26 dc3a 159f 2bbc
000000f0: e85b 053c 11fc 8f3c 9f52 44bc f6d4 1bbb
00000100: fa44 1cbc 7a0d 81bd 02c6 8d3b 93e0 5ebd
00000110: 9eff a33c 9fa2 3539 ed64 6fbc 45f4 a1bb
00000120: 8654 2c3c be90 613c 626c 34bc 591e 56bb
00000130: 031a 2dbd c8db b23a 5500 683c 49f7 e33b
00000140: 6bf6 93bc 9ae0 663c 79e1 343b 7bdf 653d
00000150: 012d 893c ef19 1c3d 82ec 0b3c 2827 28bc
00000160: f413 39bc 15cb 92bb cced 503c 0d7b d1bb
00000170: ee02 703c c39a 563a 9036 693c 53c3 bb3b
00000180: 35e2 053b a634 2a3c cff6 3dbc b476 2fbc
00000190: b991 fbbb 83d7 3a3b 70ae 033c 334f 4dbc
000001a0: 1517 b53c ba2a 2ebc 912d 16bc 2b9a 4fbb
000001b0: ad0e 4e3c 026c efbb 6ada c13c f41c 84bc
000001c0: 03df 2c3c 74f7 75bc 618e 13bb d437 7bbb
000001d0: d9fc 9d3c c28f 643a faac 843c 5192 87bb
000001e0: f166 223c eae9 253c f6e8 083b 0be3 d9bc
000001f0: 2978 ac3a 3f1e cbbb 88b4 593c 3c03 05bc
00000200: 4516 943b dc58 b8b8 cbd4 a53c ddec 2cbd
00000210: 3f36 ca3a 3cd1 cebb 811c ecbb 3ad2 d1bc
00000220: 4bc9 de3c 908d 883c d148 bcbc 7650 b2bc
00000230: 1ed8 d73c a740 31bd d621 26b9 e415 d73c
00000240: 2abd 223b 2262 303b 9267 19bc 78ed 8b3c
00000250: db81 73bc 0909 093d 6875 773b 9446 aabc
00000260: e61c 96ba fc37 19bc 0316 013b 8809 3dbb
00000270: 040b 253a 003b 113b 13a9 573b dede ebb9
00000280: 44ff 52bc cf90 943a c141 09bc 4a74 3a3d
00000290: 5ec8 cdbb 879a 443c 1540 32bb 07dc 19bd
000002a0: a1bf 5bbc f31e 69bd 679d fa3b 06ba c43b
000002b0: b51f 18bc adfa f73c c6af 5f3c cebe 87bb
000002c0: be5c be3c 85ed 0abb 3a3c d53b 01e4 263b
000002d0: d9c6 95bc 8515 983c df05 00bd 5a62 0d3c
000002e0: 7d88 c2bc 4ecb 41bc d1e8 213c 91a9 083c
000002f0: dee1 e13b 37f7 a6bc 395e 37ba 7810 113d
00000300: 3930 d33b 15e6 a03b 97d3 90bc 1d1c d33b
00000310: dc71 b53b 9c8d 5abc b0fa 24bd f3d7 9f3a
00000320: fba3 ac3b 63ca 9fbb a3ac bdbc c38a b93a
00000330: 0344 adbc df1c bbbb 2057 7c3b 4be5 5b3c
00000340: c423 4b3c fdb1 ac3b 5fef f73b a958 81bc
00000350: 4d24 403c 6519 1d3d 07b7 4d3c 30b8 563b
00000360: 3941 90b9 7bfe 0fbc 7d2a 8f3b 5dfa 49ba
00000370: 7a8d 49bd c463 16bc a8e3 cc3b 2f5d 873b
00000380: 0618 793c 5123 983c 7ed5 583c 13a8 05bc
00000390: f9b1 3b3c 5d18 df3c 157f 1ebb d5ed ee3b
000003a0: 9c38 3abc d8b1 2e3d 9dad 31bc d42a 81bc
000003b0: b948 c5bb 3bf1 94bc 5556 83bb 60c7 a0bc
000003c0: 006f 463c 0928 cbb9 4826 2cbc 710a c83a
000003d0: 6c3a 8a3d 2c2e 6cba 0b1c 2bbc c956 373c
000003e0: 6a87 c5ba 1566 e5bc 16fe 813b 66fe eeba
000003f0: e2a0 523a 4171 823d 5156 a13c 4103 9d3b

_module.model.0.bias f4 [64]
-0.00824105 0.032345306 -0.0147729805 -0.002449476 0.0048718355 -0.0044969493 -0.0056912657 -0.028512873
-0.030185526 0.036074117 0.033388484 0.0052908747 -0.009335862 -0.0026830225 -0.0006010496 -0.06729469
-0.032670777 0.044106875 0.014033148 -0.041642852 -0.013082175 -0.048579264 0.062888056 -0.008428766
0.0032287913 -0.004499602 -0.008291129 0.106943086 -0.06374203 -0.05130247 0.05322366 -0.0047973427
-0.018646663 0.012589336 -0.0022208146 0.024283191 0.08587899 0.09409259 0.013241053 -0.033378776
0.042532966 0.0050011952 0.030949574 0.0050266483 -0.008594612 -0.022901487 -0.036596473 0.003965546
0.0046882536 -0.0023551104 -0.04133522 0.023443887 0.038554527 -0.017277228 -0.00011931674 -0.0020992763
0.024826875 0.077896506 -0.0021028202 0.0155399535 -0.025716443 -0.025452748 -0.014566091 0.008805174
00000000: 7805 07bc 837c 043d 5f0a 72bc 6387 20bb
00000010: eba3 9f3b 255b 93bb cc7d babb d493 e9bc
00000020: a347 f7bc 74c2 133d 5dc2 083d 135f ad3b
00000030: 71f5 18bc a6d5 2fbb c28f 1dba ccd1 89bd
00000040: cbd1 05bd 69a9 343d 4aeb 653c b291 2abd
00000050: 9e56 56bc 0dfb 46bd 74cb 803d cf18 0abc
00000060: 219a 533b 6671 93bb 84d7 07bc fa04 db3d
00000070: 2e8b 82bd 8a22 52bd 0d01 5a3d 0733 9dbb
00000080: e3c0 98bc 8143 4e3c 168b 11bb 8bed c63c
00000090: 53e1 af3d 9eb3 c03d 00f1 583c 2fb8 08bd
000000a0: 0c37 2e3d 11e1 a33b f689 fd3c 95b6 a43b
000000b0: 6ad0 0cbc e69b bbbc 2fe6 15bd 69f1 813b
000000c0: ec9f 993b 3258 1abb 1f4f 29bd 650d c03c
000000d0: 5aeb 1d3d f988 8dbc b039 fab8 0394 09bb
000000e0: bb61 cb3c 3488 9f3d 78cf 09bb 4a9b 7e3c
000000f0: 4aab d2bc 4882 d0bc 9da6 6ebc 9443 103c

_module.model.2.weight f4 [48, 64]
0.0052164523 -0.0048058988 0.008336168 -0.0041113966 0.0046180934 -0.010075917 -0.0018205405 0.015590791
-0.0064308364 -0.019032013 0.006441905 0.0132605145 0.0022926347 -0.0027973873 0.00050494634 0.007688695
-0.0009872977 -0.0145665705 0.02331416 0.005900138 -0.001957916 -0.0004403474 0.009217769 -0.017610624
0.0012484919 -0.016803741 -0.0047272467 -0.0021705213 -0.018919492 -0.0055484064 -0.0104609495 -0.0037796712
0.013379524 0.006341585 -0.004511882 -0.003999154 0.0043902704 -0.001939486 -0.01070582 -0.0046407217
0.0005320835 0.0005467739 0.002584133 0.0085886605 0.00011493442 0.019161338 7.866556e-05 0.0053540412
0.008825156 0.011527611 0.00997118 0.003196056 0.015999388 0.002694315 0.004911433 -0.003755315
0.0068190196 -0.007921647 0.0015175714 0.010185975 -0.008212977 -0.00036152743 0.013293261 -0.014613458
-0.005660847 0.0040197163 -0.0023336746 0.010729468 -0.011879526 0.008650895 -0.014828629 -0.0020559956
0.0025926197 0.017003592 0.02151769 0.0020543502 -0.008737725 0.0037425768 0.010404889 0.007355799
0.00686797 -0.009046848 -0.0010905567 -0.013314003 0.00078519626 -0.004644098 -0.007951866 -0.004586383
0.0018698612 -0.0035281044 0.010473121 -0.006439694 -0.004622737 -0.0039803004 -0.011279482 0.00046474734
-0.007260998 -0.0007349196 -0.01378654 0.0029273643 -0.014419852 0.0016775262 0.014954456 0.008360172
-0.0055367704 -0.015187992 0.008458533 0.008509934 -0.02271469 0.01552244 -0.0030419372 -0.0064483434
-0.004480286 -0.0081396215 -0.0024395105 -0.012046956 -0.008949217 -0.011857323 -0.008692981 -0.00034016685
-6.4446314e-05 0.006149792 0.0008666764 0.004517065 -0.0014582846 0.00018236987 0.009522653 -0.004405536
-0.032214273 0.043616522 0.0017776978 -0.010963026 0.032494552 0.027562287 0.018086137 -0.003253942
0.0052978294 0.039678745 0.011546181 -0.005769311 0.039432205 0.016635869 0.035295404 -0.0051997006
0.021967152 0.018180573 0.015607533 0.0036158548 0.009977293 0.0188638 -0.0122663975 0.032127623
0.002486974 0.011100999 -0.0013640564 0.048845384 -0.009769094 -0.0014724508 0.0152881695 0.024233457
-0.02306432 0.05900971 -0.015894458 0.003745415 0.071798034 -0.03151505 -0.009184387 0.011869556
0.070031606 0.0153116295 0.035115287 0.01432515 0.06425841 0.02901517 0.0043529295 0.04789028
0.02150896 0.033852465 0.0041004 0.016967226 0.043788273 0.00084462296 0.032219213 0.065547116
0.03987902 0.0020898452 0.02626854 0.0011875442 -0.008853332 0.005052121 0.004982091 -0.010893233
0.0007047495 -0.0043177563 -0.019242017 -0.01533465 0.018617505 0.0083534615 0.011152698 0.010753984
-0.017540596 -0.015818875 2.1360458e-05 -0.0010081156 -0.0075029084 -0.0066251513 -0.00070114306 0.00075682637
-0.0021455341 -0.0067259 0.01222984 -0.01068521 0.0038297086 -0.006199011 -0.0033981043 -0.0028553098
0.0027596657 0.007778405 -0.0030511464 -0.0002554764 -0.007630434 -0.01038802 -0.026571937 -0.0030412055
0.0051059034 -0.0031134624 0.0026819124 0.002425941 -0.0013406948 -0.017088052 0.0064661084 0.009540221
-0.007635286 0.0019084378 -0.0081206495 0.01169773 0.0027474079 0.01060607 0.012727969 -0.0023972923
-0.006141447 0.0009140931 0.008300306 0.0001432594 -0.006899727 -0.015328408 -0.005731745 0.0036351485
0.005837983 -0.001444997 0.019433891 0.007144347 -0.00071045954 -0.007477101 1.6695833e-05 0.0008245949
00000000: c6ee aa3b cd7a 9dbb 6c94 083c e5b8 86bb
00000010: 6053 973b 7515 25bc 349f eeba 8470 7f3c
00000020: c4b9 d2bb 06e9 9bbc 9e16 d33b a142 593c
00000030: 0740 163b 5f54 37bb 605e 043a 73f1 fb3b
00000040: 3768 81ba a0a8 6ebc 56fd be3c f255 c13b
00000050: 6150 00bb 6dde e6b9 2006 173c 2844 90bc
00000060: 70a4 a33a 00a8 89bc 05e7 9abb 4e3f 0ebb
00000070: 0dfd 9abc 68cf b5bb 6764 2bbc 5cb4 77bb
00000080: cb35 5b3c 12cd cf3b 69d8 93bb 560b 83bb
00000090: 42dc 8f3b 5a36 feba 7767 2fbc 3211 98bb
000000a0: 857b 0b3a 6055 0f3a 8f5a 293b 74b7 0c3c
000000b0: f208 f138 3df8 9c3c 40f9 a438 f470 af3b
000000c0: 6397 103c 4ede 3c3c 295e 233c ec74 513b
000000d0: 2611 833c 1b93 303b 16f0 a03b bb1b 76bb
000000e0: 1572 df3b ccc9 01bc 3fe9 c63a 13e3 263c
000000f0: b98f 06bc 648b bdb9 facb 593c 496d 6fbc
00000100: a07e b9bb d3b7 833b 90f0 18bb a7ca 2f3c
00000110: 58a2 42bc 7cbc 0d3c c7f3 72bc e2bd 06bb
00000120: f1e8 293b 1e4b 8b3c de45 b03c 47a2 063b
00000130: ad28 0fbc 0546 753b 4479 2a3c ea08 f13b
00000140: b50c e13b 3b39 14bc 03f1 8eba fa22 5abc
00000150: a1d5 4d3a 852d 98bb 8b48 02bc 5e49 96bb
00000160: 2116 f53a c537 67bb 7497 2b3c 1204 d3bb
00000170: 547a 97bb 2e6d 82bb 94cd 38bc 55a9 f339
00000180: aaed edbb 9fa7 40ba f1e0 61bc 06d9 3f3b
00000190: 3e41 6cbc 70e0 db3a 8903 753c 1af9 083c
000001a0: cc6d b5bb 0ed7 78bc a995 0a3c 406d 0b3c
000001b0: 2814 babc d551 7e3c 3d5b 47bb a04c d3bb
000001c0: 5dcf 92bb 0c5c 05bc 32e0 1fbb 9960 45bc
000001d0: bd9f 12bc 3845 42bc 016d 0ebc 6c58 b2b9
000001e0: 5a27 87b8 3284 c93b ab31 633a e303 943b
000001f0: e923 bfba 8a3a 3f39 e704 1c3c 515c 90bb
00000200: 1df3 03bd 3da7 323d a401 e93a 449e 33bc
00000210: 0219 053d 4eca e13c 6129 943c 1640 55bb
00000220: 6a99 ad3b 2e86 223d 312c 3d3c 7d0c bdbb
00000230: aa83 213d f247 883c ea91 103d 4062 aabb
00000240: 75f4 b33c 6def 943c bdb6 7f3c faf7 6c3b
00000250: cd77 233c 4288 9a3c 00f9 48bc 4198 033d
00000260: 80fc 223b f7e0 353c 23ca b2ba 1912 483d
00000270: 8d0e 20bc 40ff c0ba 3b7b 7a3c 3e85 c63c
00000280: 63f1 bcbc 2ab4 713d 1835 82bc a375 753b
00000290: d90a 933d ed15 01bd 1c7a 16bc 8778 423c
000002a0: bb6c 8f3d a1dd 7a3c 0cd5 0f3d 09b4 6a3c
000002b0: ea99 833d 39b1 ed3c 05a3 8e3b 9928 443d
000002c0: 8f33 b03c e2a8 0a3d a65c 863b dafe 8a3c
000002d0: 555b 333d b069 5d3a 4bf8 033d 913d 863d
000002e0: 2f58 233d c9f5 083b 1f31 d73c 5fa7 9b3a
000002f0: 910d 11bc 438c a53b cf40 a33b 8879 32bc
00000300: f0be 383a f77b 8dbb 6fa1 9dbc 2f3e 7bbc
00000310: bd83 983c f5dc 083c ceb9 363c 7a31 303c
00000320: 4cb1 8fbc 9696 81bc 3c2f b337 bf22 84ba
00000330: f5da f5bb cc17 d9bb eacc 37ba c265 463a
00000340: 179c 0cbb f064 dcbb ab5f 483c 0511 2fbc
00000350: d9fb 7a3b 1321 cbbb bbb2 5ebb 2620 3bbb
00000360: 82db 343b fee1 fe3b bef5 47bb 76f1 85b9
00000370: b808 fabb 8432 2abc 64ad d9bc f64e 47bb
00000380: 6c4f a73b 3b0b 4cbb 06c3 2f3b 89fc 1e3b
00000390: 41ba afba 3efc 8bbc a6e1 d33b 964e 1c3c
000003a0: 6c31 fabb 8c24 fa3a 790c 05bc d6a7 3f3c
000003b0: db0d 343b 15c5 2d3c f988 503c e41b 1dbb
000003c0: 313e c9bb c09f 6f3a 02fe 073c e737 1639
000003d0: 1b17 e2bb 0124 7bbc 5dd1 bbbb ac3b 6e3b
000003e0: 8d4c bf3b 0e66 bdba d333 9f3c 201b ea3b
000003f0: 223e 3aba 7802 f5bb 070e 8c37 a129 583a

_module.model.2.bias f4 [48]
0.0044185715 0.013801452 0.078172706 -0.01564169 0.020227201 0.0169931 -0.002920615 0.005074742
-0.0126219895 -0.012922451 -0.016731426 -0.008943835 -0.01048209 -0.02993609 -0.00037642557 0.04738506
0.07488081 0.0090112565 -0.027722655 0.0024715352 -0.036628034 0.016273115 0.010199101 -0.0026930822
0.04457222 0.051761568 0.008878893 -0.011097846 0.026068399 0.08097292 0.026787866 -0.019787684
0.0036712948 0.06601657 0.10845733 0.00046416515 -0.012568785 0.036168676 0.013171695 -0.005575532
-0.0057878857 -0.018039769 0.0050773304 0.0055510234 0.07036 0.013987287 0.013524739 0.08735228
00000000: aac9 903b 7c1f 623c 0319 a03d 0023 80bc
00000010: 84b3 a53c 1d35 8b3c ca67 3fbb 054a a63b
00000020: 76cc 4ebc b0b8 53bc 5810 89bc 2a89 12bc
00000030: 12bd 2bbc 883c f5bc fc5a c5b9 d616 423d
00000040: 1c5b 993d f3a3 133c 9f1a e3bc 7bf9 213b
00000050: 4707 16bd 324f 853c 211a 273c 6c7e 30bb
00000060: 5c91 363d f003 543d c778 113c bdd3 35bc
00000070: 658d d53c 21d5 a53d 3a72 db3c c819 a2bc
00000080: 1b9a 703b b233 873d e01e de3d 315b f339
00000090: 4eed 4dbc 9b25 143d 18ce 573c f4b2 b6bb
000000a0: 4ea8 bdbb 23c8 93bc bc5f a63b 5ce5 b53b
000000b0: e718 903d ef2a 653c de96 5d3c c1e5 b23d

_module.model.4.weight f4 [32, 48]
0.002994346 -0.010218416 0.01261835 0.0037713572 0.0001839975 -0.007905519 -0.002021171 -0.0045879963
0.010818224 -0.0061617414 0.009160002 -0.014428676 0.0034293104 0.00054746616 -0.007359207 0.011830427
0.018343315 0.0053078877 0.00096259103 -0.008964223 -0.003698449 -0.004809332 -0.008182437 0.010971111
-0.007340081 -0.005029681 -0.02239507 -0.0005219765 -0.00031473534 -0.0028311857 -0.012406422 0.00022083658
-0.00052614044 0.0022311294 -0.0122643225 -0.004856106 0.0048063314 0.007654551 -0.014131083 0.0155393705
0.008743382 -0.008346973 0.018186215 0.009560093 -0.0017178375 0.013632223 -0.009608743 0.0007439843
-0.0021494864 0.0009824529 0.017180549 0.0019606126 0.0054956367 0.004931489 -0.011325201 -0.0052066003
0.006667025 -0.0033692315 -0.012707435 -0.010736921 0.00470203 -0.0059403162 0.0020291328 0.0059881723
0.01217694 -0.0066851843 0.004493208 -0.021784812 -0.008171433 -0.0028347813 -0.016733404 -0.013750028
-0.0033785554 0.021120165 -0.0036722263 0.003004299 -0.005514915 0.012946108 -0.00042105844 0.004969224
0.0006689675 0.0041646585 -0.013039065 0.0048638694 -0.010701437 -0.009092413 0.00011929898 0.03195547
0.0041048666 0.005340548 0.01930359 -0.010209354 -0.011947325 0.006612077 -0.032353535 -0.009488629
-0.00515304 0.0035131283 0.029490732 -0.0011047219 -0.009085921 0.020251581 -0.0027039305 0.0047586863
0.004646665 -0.005364027 -0.0069271433 -0.03597914 -0.0058392277 -0.009458733 -0.004565965 -0.0043248674
-0.042064644 0.010141282 0.001953698 -0.010771487 0.022218928 -0.019907871 -0.010289176 -0.019221246
-0.004719272 0.016278107 -0.018301442 0.011361495 -0.06882919 0.044388015 0.00894863 -0.012821395
0.009003865 0.055174723 -0.0074753324 -0.0125611145 0.00088624854 0.004564344 0.0031120158 0.007861594
-0.016158469 0.006811956 -0.005829697 -0.0073852516 -0.0026886296 0.0431905 -0.021015666 0.019140437
-0.006702423 0.00044701586 -0.013835122 0.002354906 0.006521908 0.0088202255 0.005180554 -0.00012447318
-0.028821614 0.019560754 -0.017631136 -0.014076419 0.004380006 -0.008999002 0.0052821147 0.0058309124
0.00132313 -0.004493694 0.0024809174 -0.00011199863 -0.00026982697 -0.010205592 0.0038182263 0.002693277
-0.0073079946 1.7534512e-05 -0.010512102 -0.010152204 -0.022665182 -0.0008147729 0.012146085 0.0048454194
-0.0063473787 -0.008877745 0.012156987 -0.004209005 0.014618413 -0.004487973 0.0048962273 -0.0047204406
-0.008657227 -0.007960054 -0.02022354 -0.010116848 -0.010885915 0.001974946 0.009108368 -0.019089686
0.0048819412 -0.02859508 0.07248608 -0.008253801 -0.031483136 0.037271112 0.00857076 0.021951856
-0.031886153 0.002336407 -0.01747902 0.025542691 0.0051118587 0.017828453 -0.0035803476 -0.0034834945
0.043185286 0.0003024341 -0.008290524 0.004478394 0.008136051 0.0026605125 -0.002164656 0.0040628975
0.026811084 0.006854209 -0.004692534 -0.00032271957 -0.018176975 0.060284186 -0.012177984 0.0019813941
0.041587826 0.04098229 0.038297888 0.023184044 0.003039461 -0.008827595 0.10052678 -0.014080764
0.017732969 -0.004501767 0.026712941 0.007922535 0.09195672 0.007192274 -0.009496 0.057638288
-0.012195254 0.0013201658 0.021946754 -0.017496673 -0.016043436 0.007952625 -0.016041726 0.00418327
0.00775206 -0.008975494 0.007530079 0.013854955 -0.0026702236 0.012604644 0.0005215972 0.006467188
00000000: ca3c 443b 256b 27bc 32bd 4e3c e028 773b
00000010: 74ef 4039 2686 01bc 9f75 04bb e756 96bb
00000020: ec3e 313c 6fe8 c9bb d513 163c 4166 6cbc
00000030: 48be 603b d583 0f3a 8125 f1bb 68d4 413c
00000040: b844 963c caed ad3b 6456 7c3a adde 12bc
00000050: ae61 72bb 9a97 9dbb a10f 06bc 2dc0 333c
00000060: 1085 f0bb 06d0 a4bb de75 b7bc 40d5 08ba
00000070: 1003 a5b9 6a8b 39bb 4e44 4bbc 5e90 6739
00000080: b0ec 09ba 2438 123b 4cf0 48bc f81f 9fbb
00000090: 6e7e 9d3b 07d3 fa3b 0f86 67bc d898 7e3c
000000a0: 6740 0f3c bec1 08bc 42fb 943c f0a1 1c3c
000000b0: 1029 e1ba b059 5f3c fd6d 1dbc f107 433a
000000c0: 66de 0cbb a6c5 803a 39be 8c3c 9f7d 003b
000000d0: be14 b43b 5498 a13b 568d 39bc 219c aabb
000000e0: 0f77 da3b 53ce 5cbb d832 50bc e9e9 2fbc
000000f0: 7d13 9a3b fca6 c2bb 33fb 043b 6e38 c43b
00000100: ca81 473c 640f dbbb c33b 933b 1076 b2bc
00000110: 79e1 05bc bdc7 39bb 7e14 89bc cc47 61bc
00000120: c16a 5dbb 3204 ad3c bca9 70bb c6e3 443b
00000130: 76b6 b4bb ea1b 543c 82c1 dcb9 dfd4 a23b
00000140: a65d 2f3a b077 883b cda1 55bc 1861 9f3b
00000150: 1455 2fbc 58f8 14bc 2730 fa38 bde3 023d
00000160: 1e82 863b c4ff ae3b 9022 9e3c 2245 27bc
00000170: b7be 43bc 1faa d83b 2485 04bd 3276 1bbc
00000180: d5da a8bb 833c 663b 8c96 f13c 51cc 90ba
00000190: 1ddd 14bc a5e6 a53c 6d34 31bb c1ee 9b3b
000001a0: 0d43 983b b8c4 afbb 17fd e2bb dd5e 13bd
000001b0: fe56 bfbb cdf8 1abc 179e 95bb 9eb7 8dbb
000001c0: fa4b 2cbd 9f27 263c 9d09 003b e47a 30bc
000001d0: 7804 b63c d515 a3bc ef93 28bc e075 9dbc
000001e0: 1fa4 9abb aa59 853c e8ec 95bc 9025 3a3c
000001f0: 52f6 8cbd 35d0 353d 469d 123c d410 52bc
00000200: f284 133c e4fe 613d a2f3 f4bb 22cd 4dbc
00000210: 2253 683a 7e90 953b f6f2 4b3b eacd 003c
00000220: c45e 84bc d436 df3b 0b07 bfbb fbff f1bb
00000230: b833 30bb 86e8 303d 0c29 acbc 68cc 9c3c
00000240: 00a0 dbbb 745d ea39 b5ac 62bc c454 1a3b
00000250: bbb5 d53b b582 103c a3c1 a93b 0485 02b9
00000260: 4e1b ecbc e03d a03c 2c6f 90bc c8a0 66bc
00000270: 2786 8f3b 8d70 13bc 9715 ad3b 3d11 bf3b
00000280: e06c ad3a d63f 93bb e396 223b cee0 eab8
00000290: 9077 8db9 5b35 27bc 353b 7a3b b181 303b
000002a0: e777 efbb 1417 9337 f43a 2cbc 6e55 26bc
000002b0: 55ac b9bc 7c96 55ba 5f00 473c 53c6 9e3b
000002c0: acfd cfbb f673 11bc 192e 473c b1eb 89bb
000002d0: 1182 6f3c d90f 93bb 8870 a03b edad 9abb
000002e0: 0bd7 0dbc e36a 02bc d6ab a5bc 23c1 25bc
000002f0: d65a 32bc 186e 013b 443b 153c f961 9cbc
00000300: b1f8 9f3b 3b40 eabc 9573 943d f33a 07bc
00000310: 76f4 00bd 98a9 183d 5f6c 0c3c 61d4 b33c
00000320: 0e9b 02bd 681e 193b 2930 8fbc e83e d13c
00000330: 6181 a73b fa0c 923c 44a4 6abb 574b 64bb
00000340: 0ee3 303d 0590 9e39 fad4 07bc 7ebf 923b
00000350: 124d 053c fe5b 2e3b e7dc 0dbb 0e22 853b
00000360: eba2 db3c 4699 e03b d4c3 99bb b032 a9b9
00000370: e1e7 94bc 8dec 763d 2b86 47bc 47da 013b
00000380: ff57 2a3d 0cdd 273d 3fde 1c3d 77ec bd3c
00000390: b231 473b 9ea1 10bc fce0 cd3d 01b3 66bc
000003a0: bb44 913c 8f83 93bb 19d5 da3c 85cd 013c
000003b0: ce53 bc3d 2bad eb3b 1c95 1bbc 2016 6c3d
000003c0: 9ace 47bc 6a09 ad3a aec9 b33c 2f55 8fbc
000003d0: 866d 83bc ba4b 023c f069 83bc d013 893b
000003e0: fe04 fe3b f30d 13bc e2be f63b e5ff 623c
000003f0: ebfe 2ebb b583 4e3c ccbb 083a b4ea d33b

_module.model.4.bias f4 [32]
0.0062671686 0.07753639 0.053839367 0.0108795 0.15008214 -0.05220519 0.011646559 -0.02258399
0.014643036 -0.011249829 -0.0014576676 -0.10020701 0.06318371 -0.023539204 -0.0152340075 0.06849556
0.111456975 -0.00433692 -0.07907771 0.008888963 -0.083668604 0.14411224 0.092077866 0.0047147935
0.017071197 0.11458065 0.0070524164 0.012815036 -0.023213401 -0.070318535 6.4805754e-06 0.05291471
00000000: d25c cd3b 66cb 9e3d ab86 5c3d ee3f 323c
00000010: 22af 193e 1cd5 55bd 36d1 3e3c 0f02 b9bc
00000020: 58e9 6f3c 3451 38bc 350f bfba 5539 cdbd
00000030: 7666 813d 4ad5 c0bc 0f98 79bc 6647 8c3d
00000040: 8e43 e43d b91c 8ebb 7ff3 a1bd 03a3 113c
00000050: 725a abbd 2992 133e 5293 bc3d 8e7e 9a3b
00000060: e5d8 8b3c 43a9 ea3d f517 e73b 28f6 513c
00000070: 082a bebc 2a03 90bd b873 d936 18bd 583d

_module.model.6.weight f4 [16, 32]
-0.016932115 -0.0070541715 -0.019949019 0.014988476 -0.043335598 0.020353133 -0.014516289 0.002079936
0.008619832 -0.005983394 -0.010663152 0.006499688 -0.05220239 0.008870128 0.007157909 -0.054281857
0.018808069 -0.0036760666 -0.0064768298 -0.01012339 0.0011864582 -0.005814111 -0.00018421284 0.0064134896
0.023542315 -0.049128514 -0.009885911 0.009745974 0.013411567 -0.0053936117 0.0041690106 -0.0009067564
0.0068990993 -0.009074543 0.043179348 -0.015350058 0.1695845 -0.02717423 -0.010171555 0.00018119116
-0.020930715 0.010328063 0.00865794 0.018488351 0.04535104 0.02217513 0.026633464 0.13318262
0.006684295 0.00025712745 -0.0060497574 0.00422756 -0.0054569324 0.16776682 0.009249491 0.004162029
-0.01095829 0.07488023 -0.003845346 0.011472576 0.0936101 0.0062056966 -0.0022132704 0.0027845828
0.0018488514 0.00086336146 -0.0052912254 -0.0017805827 -0.019192725 0.014775862 -0.013933361 0.0014327366
0.012945592 -0.00062717265 -0.0038904673 -0.014877181 -0.0031920662 -0.007943682 -0.0037913418 -0.01208745
-0.009789062 -0.004399287 -0.0035794436 -0.009096738 -0.0031502258 0.010285052 0.008790092 0.0069718356
-0.010488161 -0.011824423 -9.415446e-06 0.0065507735 0.0006867188 0.0064507537 0.00782596 -0.008205541
-0.0019710572 -0.050687995 -0.082866766 0.006512478 -0.15194726 -0.031166753 -0.01732351 -0.010556173
-0.0066506215 0.023007562 -0.014257364 0.002997936 -0.10033615 -0.005891838 0.017456649 -0.055296443
0.0073803416 -0.009123806 -0.009750852 0.00065170054 0.018009173 0.08188327 0.029766373 -0.025740067
0.0396432 -0.04636743 -0.0059519606 -0.0021198343 -0.061717436 -0.0012360159 0.0009447896 0.051007546
-0.0021301818 0.017145773 0.0047690882 -0.014512502 0.012599038 -0.011866813 -0.0120776035 0.0031155439
-0.008207149 0.009600557 0.01001698 -0.019102026 0.022459403 0.009182047 -0.00044902173 0.017712962
0.011151734 0.0046543707 -0.00043602847 0.004648424 0.008418441 0.025648847 0.01245554 0.001290676
0.006428127 0.013459772 -0.015309569 -0.0063157985 0.002489566 0.0022885886 0.0060017556 -0.0064464477
-0.0026267194 0.04953563 0.107436806 -0.002037413 0.08570784 -0.02303781 -0.00774634 0.0044016256
0.00971148 0.056571882 -0.012271108 -0.008044084 0.08987487 -0.0128256595 0.0072810696 0.09509918
0.05879309 -0.011856753 -0.015307651 -0.013851129 -0.008737421 0.0010842725 -0.009435601 -0.0020108733
0.014176679 0.061430722 -0.010559294 -0.012700312 0.03547149 0.008329458 -0.0025060817 -0.018320773
-0.0012103731 0.0072082356 -0.03095649 0.008348486 -0.055136133 0.041625127 0.015766528 0.0027476957
-0.0036982899 -0.0018803302 -0.008443763 0.015419193 -0.1151652 0.010717763 -0.01899205 -0.111879006
0.068375655 -0.006313152 -0.00077010016 -0.0049442193 -7.4073236e-05 -0.04155964 -0.031170875 0.00055506325
0.0062569664 -0.0489707 -0.012548109 -0.021151543 0.056393877 0.016596021 0.013461395 -0.0028287605
-6.668977e-05 -0.07466672 -0.015271504 -0.0052340883 0.1358887 0.076324396 0.0053665214 0.038426816
0.00069985585 0.10785772 0.0041741324 -0.031765174 0.20799072 -0.005325498 0.0041892035 -0.016557427
0.21877581 -0.011977076 0.0005830291 0.0044961087 0.0484323 0.16424862 -0.05813226 -0.0010357589
0.04749954 0.036030434 0.0021617608 0.018525742 -0.04501926 0.049884792 -0.008609853 -0.026999326
00000000: 38b5 8abc ae26 e7bb 206c a3bc 3a92 753c
00000010: ab80 31bd 9dbb a63c bbd5 6dbc 894f 083b
00000020: 323a 0d3c 5910 c4bb 80b4 2ebc 56fb d43b
00000030: 2cd2 55bd 0354 113c e58c ea3b a756 5ebd
00000040: 6113 9a3c 2aea 70bb 963b d4bb 93dc 25bc
00000050: ee82 9b3a 4c84 bebb 4229 41b9 4028 d23b
00000060: d0db c03c fb3a 49bd 84f8 21bc 94ad 1f3c
00000070: 30bc 5b3c e5bc b0bb 329c 883b 64b3 6dba
00000080: d711 e23b 64ad 14bc d4dc 303d cf7e 7bbc
00000090: 8fa7 2d3e 7e9c debc 98a6 26bc 22fe 3d39
000000a0: e476 abbc 0937 293c 08da 0d3c e274 973c
000000b0: 03c2 393d 9ea8 b53c 6c2e da3c 0661 083e
000000c0: ee07 db3b 10cf 8639 0b3d c6bb 5887 8a3b
000000d0: 11d0 b2bb 11cb 2b3e 2d8b 173c a161 883b
000000e0: 668a 33bc ce5a 993d 3302 7cbb 79f7 3b3c
000000f0: a7b6 bf3d 2859 cb3b 840c 11bb 8c7d 363b
00000100: 2955 f23a 3553 623a 0462 adbb 7162 e9ba
00000110: 103a 9dbc 7516 723c c048 64bc aaca bb3a
00000120: c019 543c d868 24ba 36f7 7ebb 6bbf 73bc
00000130: fc31 51bb 3826 02bc 2978 78bb 710a 46bc
00000140: 4d62 20bc e527 90bb 1995 6abb 7c0a 15bc
00000150: 0574 4ebb a282 283c 5104 103c ff73 e43b
00000160: 89d6 2bbc 3abb 41bc 08f7 1db7 dfa7 d63b
00000170: eb04 343a d860 d33b 7538 003c 8970 06bc
00000180: da2c 01bb 379e 4fbd 0db6 a9bd a066 d53b
00000190: 1098 1bbe 6b51 ffbc 09ea 8dbc ccf3 2cbc
000001a0: 75ed d9bb 5b7a bc3c b897 69bc 0579 443b
000001b0: 0a7d cdbd 5210 c1bb 3f01 8f3c 867e 62bd
000001c0: cbd6 f13b 047c 15bc 0ac2 1fbc e2d6 2a3a
000001d0: f987 933c 6ab2 a73d 9cd8 f33c d5dc d2bc
000001e0: e860 223d c6eb 3dbd aa08 c3bb ebec 0abb
000001f0: 6ccb 7cbd d001 a2ba c2ab 773a 4aed 503d
00000200: 859a 0bbb 4b75 8c3c 0346 9c3b d8c5 6dbc
00000210: 326c 4e3c 056d 42bc 24e1 45bc 272e 4c3b
00000220: 4777 06bc a84b 1d3c 421e 243c da7b 9cbc
00000230: c8fc b73c 4c70 163c ad6a ebb9 c61a 913c
00000240: c3b5 363c b183 983b c09a e4b9 cf51 983b
00000250: 80ed 093c 881d d23c 5212 4c3c e62b a93a
00000260: 0aa3 d23b 6086 5c3c fdd4 7abc c2f4 cebb
00000270: fd27 233b 25fc 153b 60aa c43b b93c d3bb
00000280: 0a25 2cbb dfe5 4a3d d407 dc3d 1e86 05bb
00000290: 9887 af3d cab9 bcbc 02d5 fdbb 833b 903b
000002a0: e61c 1f3c ebb7 673d c20c 49bc 55cb 03bc
000002b0: 5110 b83d b722 52bc 0a96 ee3b 5cc3 c23d
000002c0: 06d1 703d d442 42bc f1cc 7abc d9ef 62bc
000002d0: 6627 0fbc 261e 8e3a c797 1abc dbc8 03bb
000002e0: 4d45 683c c89e 7b3d e400 2dbc f814 50bc
000002f0: 8e4a 113d 4778 083c 133d 24bb 7215 96bc
00000300: 62a5 9eba 1033 ec3b 7798 fdbc 17c8 083c
00000310: 6dd6 61bd 1c7f 2a3d ce28 813c af12 343b
00000320: 025f 72bb 6975 f6ba b557 0abc c8a0 7c3c
00000330: bbdb ebbd 8e99 2f3c 3795 9bbc d220 e5bd
00000340: 8908 8c3d 8fde cebb 8ce0 49ba 1e03 a2bb
00000350: c457 9bb8 713a 2abd 105a ffbc aa81 113a
00000360: 3d07 cd3b 8095 48bd 9596 4dbc 0046 adbc
00000370: 44fd 663d 61f4 873c 2f8d 5c3c ba62 39bb
00000380: ccdb 8bb8 deea 98bd 5535 7abc b782 abbb
00000390: 6826 0b3e f74f 9c3d a5d9 af3b 7065 1d3d
000003a0: 8876 373a 82e4 dc3d 29c7 883b 331c 02bd
000003b0: 85fb 543e 8481 aebb 9645 893b 71a3 87bc
000003c0: c406 603e 7f3b 44bc 6cd6 183a 1854 933b
000003d0: f360 463d ca30 283e 181c 6ebd 4dc2 87ba
000003e0: e18e 423d a694 133d 54ac 0d3b 4cc3 973c
000003f0: 1e66 38bd ff53 4c3d 5710 0dbc b12d ddbc

_module.model.6.bias f4 [16]
-0.0027205674 0.17130353 -0.0066608954 0.07863762 0.03350083 -0.070619516 0.10881899 0.13101366
0.057264514 -0.068936445 0.047610566 0.0149390325 0.0013585039 0.017831601 0.03462482 0.048272
00000000: 8c4b 32bb 316a 2f3e a443 dabb c30c a13d
00000010: 2b38 093d f7a0 90bd 7edc de3d 7228 063e
00000020: 328e 6a3d 8d2e 8dbd 4c03 433d d8c2 743c
00000030: d40f b23a 9413 923c c1d2 0d3d dcb8 453d

_module.model.8.weight f4 [8, 16]
0.03412885 -0.111120574 0.011132907 0.087034725 -0.0062533235 0.16614081 0.07286904 -0.26284355
0.0016948499 0.16758747 -0.0039054458 -0.011066502 0.023270236 0.06716892 0.07024975 0.1511792
-0.0075934324 -0.014730535 -0.019093128 -0.0046081613 -0.050064612 -0.02106656 0.026148781 -0.0190798
-0.018047605 -0.011295261 -0.027948566 -0.006031768 -0.010453816 -0.010338403 0.022993285 -0.0005077788
-0.006267658 0.024563009 -0.008580507 -0.006286324 0.003023606 0.0103768855 -0.008411047 -0.024871869
0.0014906174 -0.017316798 -0.010638477 0.03155616 0.016915856 -0.004203619 0.015192628 0.01433445
-0.011194498 -0.21763767 0.016720919 -0.04738105 0.010296102 -0.12420222 -0.12824771 -0.061921734
0.16065513 -0.18025446 0.032233812 0.0852538 0.0031433615 -0.26714888 -0.13548607 -0.20239337
0.1223406 0.040826235 -0.02234416 0.105351634 0.009066428 -0.031806026 -0.05782829 -0.23703285
-0.04454196 -0.043072123 -0.08606434 0.041458894 0.016407898 -0.050827496 -0.11518049 -0.15388706
-0.008009057 -0.009120016 0.035496447 0.067745805 0.03753743 -0.106577165 0.07979179 -0.15902038
-0.08221649 -0.22023284 0.0072156643 0.034493346 -0.002742181 -0.09251627 0.09921144 -0.09796485
0.024511348 -0.0006568237 -0.00801018 -0.006554806 8.7560766e-05 0.005674831 0.0005704098 -0.03229262
-0.013576248 -0.017424904 -0.00781286 -0.014633175 -0.033560045 0.054319255 -0.0027572424 -0.004491767
-0.005317334 0.030686714 -0.026533663 -0.005911664 -0.0016650232 0.019427707 0.015602378 0.03651448
0.026764384 0.022421924 0.00781373 0.007704038 -0.0052787317 0.059430048 0.011473919 0.05045301
00000000: b1ca 0b3d 2f93 e3bd cc66 363c 433f b23d
00000010: aee8 ccbb d120 2a3e 5d3c 953d 6e93 86be
00000020: ba25 de3a 0d9c 2b3e 82f2 7fbb 4650 35bc
00000030: 39a1 be3c dc8f 893d 1adf 8f3d b8ce 1a3e
00000040: 54d2 f8bb 5858 71bc 3169 9cbc 0f00 97bb
00000050: 8d10 4dbd c793 acbc f835 d63c 3e4d 9cbc
00000060: 92d8 93bc c20f 39bc 64f4 e4bc 23a6 c5bb
00000070: 7b46 2bbc 6862 29bc 6a5c bc3c 751c 05ba
00000080: ed60 cdbb 5d38 c93c 4195 0cbc 82fd cdbb
00000090: b127 463b d003 2a3c 7dce 09bc 17c0 cbbc
000000a0: d260 c33a f5db 8dbc 024d 2ebc 0841 013d
000000b0: 1f93 8a3c 83be 89bb 80ea 783c 0adb 6a3c
000000c0: 2169 37bc 69dc 5ebe 4ffa 883c a212 42bd
000000d0: fbb0 283c bc5d febd 5e53 03be a5a1 7dbd
000000e0: c782 243e a094 38be 9a07 043d 8b99 ae3d
000000f0: db00 4e3b bdc7 88be dcbc 0abe 3540 4fbe
00000100: b58d fa3d 6939 273d 1a0b b7bc 99c2 d73d
00000110: 5b8b 143c 0947 02bd 5bdd 6cbd bdb8 72be
00000120: a171 36bd 656c 30bd 8042 b0bd cdd0 293d
00000130: db69 863c 7e30 50bd c0e3 ebbd 9294 1dbe
00000140: 6b38 03bc 1f6c 15bc b964 113d 50be 8a3d
00000150: d9c0 193d 2145 dabd e169 a33d 3dd6 22be
00000160: 1e61 a8bd b884 61be 6171 ec3b e548 0d3d
00000170: 2ab6 33bb 2c79 bdbd 5e2f cb3d cca1 c8bd
00000180: 06cc c83c b12e 2cba 213d 03bc b3c9 d6bb
00000190: d4a0 b738 eff3 b93b 8e87 153a 4445 04bd
000001a0: e96e 5ebc acbe 8ebc 8301 00bc fcbf 6fbc
000001b0: 4276 09bd de7d 5e3d dab2 34bb ac2f 93bb
000001c0: 083d aebb b462 fb3c 205d d9bc a2b6 c1bb
000001d0: e83c daba db26 9f3c 1ea1 7f3c 3590 153d
000001e0: fb40 db3c 2fae b73c 2905 003c 2872 fc3b
000001f0: 36f9 acbb ec6c 733d 1bfd 3b3c d1a7 4e3d

_module.model.8.bias f4 [8]
-0.13910373 -0.003804075 -0.016313545 0.13795522 0.01846715 0.21670325 -0.042300977 0.001741075
00000000: 3571 0ebe ca4d 79bb fca3 85bc 2244 0d3e
00000010: 6c48 973c 75e7 5d3e ca43 2dbd c834 e43a

_module.model.10.weight f4 [2, 8]
-0.05509039 0.17469102 0.22661859 0.07536779 -0.27374604 -0.10468356 0.16487308 -0.17330095
-0.30951065 -0.043048006 -0.11807902 0.008016236 -0.0024005845 0.31946394 -0.22979291 -0.2833749
00000000: 76a6 61bd 34e2 323e b40e 683e 6e5a 9a3d
00000010: 7128 8cbe 5664 d6bd 7dd4 283e ce75 31be
00000020: 2e78 9ebe 1b53 30bd 6ad3 f1bd 8856 033c
00000030: 2053 1dbb c790 a33e d54e 6bbe 8416 91be

_module.model.10.bias f4 [2]
0.1328818 0.19138552
00000000: 2b12 083e 91fa 433e
